models/lstm/CNC-MAZAK-01_CNC01_LOAD_lstm.pt (torch, 498398 bytes, 15 tensors)

lstm_layers.0.weight_ih_l0 f4 [512, 1]
000000 b9 a6 76 bc 80 74 eb 3c 00 6f 1d 3e be 11 2c 3d
       -0.015054398 0.028742075 0.15374374 0.042009108
000010 92 73 e3 3d 4a d3 e5 ba 70 9d a6 3a 56 a9 9c 3c
       0.11106028 -0.0017534283 0.0012711715 0.019123714
000020 69 4b 90 3d 5e 3b 04 3e c9 1c 97 bb 16 c7 b0 3c
       0.07045633 0.12913272 -0.0046115858 0.021579307
000030 0a 75 2e 3d b6 c4 96 3c d0 6e 28 bb 18 32 8d 3c
       0.042592086 0.018404346 -0.0025700815 0.0172358
000040 b7 31 3f 3d e9 d3 65 bc b5 4e ba 3b 67 7b 31 bb
       0.04667827 -0.014027574 0.005685652 -0.002708161
000050 f7 67 e8 3d 5a 09 95 3d d0 9b c8 3d 21 00 28 bc
       0.11347955 0.07277174 0.09795344 -0.010253937
000060 f0 05 cd 3b 1f 2b 3b 3d 86 a2 8f bc 2f 78 a5 3d
       0.0062568113 0.04569542 -0.017533552 0.08079564
000070 ad 2b 23 bb a5 f7 91 3d 9c a5 74 3c 78 d2 83 3d
       -0.002489786 0.071273126 0.0149320625 0.06436628
000080 fe 5a da b9 6a eb 6b bb 39 a9 bf 3b db b2 fb 3c
       -0.00041647995 -0.0035998472 0.0058490303 0.030724933
000090 2a 0a 0e bb b7 75 1a ba 79 b9 0b 3d 66 f4 cb 3a
       -0.0021673539 -0.00058921747 0.034112427 0.0015560507
0000a0 5c ad 3a 3c be ae 30 ba a7 70 90 bd dc 53 8f 3d
       0.011393871 -0.0006739906 -0.07052737 0.06998417
0000b0 a0 ea 88 3b c2 79 d5 3a 27 25 d1 39 ce 01 da 3c
       0.00417836 0.0016286897 0.00039891267 0.026612189
0000c0 33 d7 4b 3d 27 02 d1 3d ed c8 45 bc a1 c8 97 3c
       0.049765777 0.10205489 -0.01207183 0.018528285
0000d0 69 86 50 3d a4 ac 2a 3d 1e 72 4c 3c 2e 24 17 3d
       0.050909434 0.04166855 0.0124783795 0.036899738
0000e0 ed 19 3e 3d 9c c8 29 3d db 1c 8d 3d 0b 20 08 bd
       0.046411444 0.04145108 0.06890269 -0.033233684
0000f0 e5 13 54 3d 77 83 82 bc 73 3a 30 bc e0 7e e6 b9
       0.051776785 -0.015931828 -0.010756123 -0.00043963548
000100 97 04 e2 bb 5d 80 24 bb 47 10 da 3a b9 76 52 bd
       -0.00689752 -0.0025100925 0.0016636931 -0.051382754
000110 31 69 c6 bc b5 ce 46 3d f7 49 54 3d 51 cc c6 3c
       -0.024220081 0.048536975 0.05182835 0.024267348
000120 45 5b 90 3d 4b 2f e9 3d b1 05 a1 3d f7 56 dc 3c
       0.07048658 0.113859735 0.07862414 0.026896937
000130 71 50 9a 3d b7 d8 b3 bc e7 5f ae bd 7b 1a 68 bd
       0.07534874 -0.021953924 -0.08514386 -0.05666588
000140 9d bf 52 3b 87 9f b7 3d 4e 6a 68 3d e1 c7 02 3d
       0.0032157667 0.08965974 0.056742005 0.0319289
000150 b3 27 06 3e af b8 9f 3c 42 9d 2a bc 1f aa dc 3c
       0.13101082 0.019497244 -0.01041347 0.026936589
000160 52 8c a2 3b 88 55 dd 3c bf 66 51 bc 4e be 5b 3c
       0.004960575 0.027018324 -0.012780844 0.013412071
000170 90 77 46 3c 8f 5a 45 bc 7a ca 57 bb 6a ff 9d 3d
       0.012113467 -0.012045517 -0.0032927082 0.07714732
000180 dd c5 2a 3d 8e 4d 07 3d b4 f0 db bc ed 2b 7b 3d
       0.041692603 0.033032946 -0.026848175 0.061321188
000190 f9 b5 9e 3d c4 a3 9a 3d 43 f0 ca bc 9e ef 84 3d
       0.07749552 0.07550767 -0.024772769 0.06491016
0001a0 b2 0e a3 3d 8f 96 31 3b 0a 94 b8 bc 31 ea 8d 3d
       0.07961787 0.0027097797 -0.022531528 0.06929434
0001b0 4f 3e 51 3d 57 e5 ba 3b 11 b5 02 3d 35 bb 14 bd
       0.051084813 0.005703609 0.03191096 -0.036311347
0001c0 3a f3 fc bb 3b 27 00 3d fe fc 4c 3d 98 31 a7 3d
       -0.0077194246 0.031287413 0.05004596 0.08163756
0001d0 21 b5 12 3c 3f 7e 82 3d e7 4c 24 bc e8 3a 83 bd
       0.008954317 0.06371736 -0.010028101 -0.0640772
0001e0 7c 5f 02 bc 46 4c b2 bb d7 df 2b 3d da 70 91 3d
       -0.007957336 -0.0054412214 0.041961517 0.07101603
0001f0 5f b2 1c bc e9 5f 2c 3d 22 94 31 3b 57 38 0a 3e
       -0.009564011 0.042083655 0.002709635 0.13498054
000200 18 34 47 3c 32 16 2f 3d 7e 22 0b 3e f7 e4 fb 3c
       0.012158416 0.042745776 0.13587376 0.030748827
000210 8f c4 cd 3c ac b6 bf bb 69 05 82 bd 1d da 5b 3d
       0.02511814 -0.0058506336 -0.06348688 0.053674806
000220 e1 8f ba bb cb c7 f3 3d ab 68 a2 bb 9e d5 59 bc
       -0.0056934212 0.11903342 -0.004956325 -0.013295559
000230 03 ae fd 3d cc 9a 84 bc 26 3b f7 3d 2f 08 31 bd
       0.12386706 -0.016187094 0.120718285 -0.043220695
000240 fc 90 42 3d b2 af a3 bb 71 39 8a bc 6a 80 84 3d
       0.04750155 -0.0049953097 -0.016873093 0.064698055
000250 4f 1f b4 3d ac 0e ae 3d 9f 7c 39 3d de fd f0 bb
       0.08795034 0.08498892 0.045284864 -0.007354482
000260 a9 de 05 bd ba a3 42 3d a6 cc a2 bc 40 31 2c 3e
       -0.03268305 0.047519423 -0.019872975 0.16815662
000270 98 c3 15 3e 0f 35 bc ba 4e ec 40 3c 63 f8 76 3c
       0.14625394 -0.0014359074 0.011775089 0.015073868
000280 73 64 fe bb 00 4f fc bc c1 1e 70 bb 44 24 51 bd
       -0.0077634393 -0.030799389 -0.0036639425 -0.051059976
000290 ff 66 4c bb d5 aa 98 ba 7d 49 55 3d 5d b6 91 bb
       -0.003118932 -0.0011647592 0.052072037 -0.004446788
0002a0 af 09 c1 3c 05 e0 04 bb 20 41 d5 bc 03 2f 83 3d
       0.023564188 -0.0020275128 -0.02603203 0.06405451
0002b0 1a a7 6d 3c cd 74 73 39 66 ac 84 3c 60 b8 8a 3c
       0.014505172 0.00023217798 0.016195487 0.01693362
0002c0 71 b2 b1 3d 37 79 6c 3d 76 c6 c9 bb 41 6d 9d bc
       0.08676613 0.057732787 -0.0061576916 -0.019217135
0002d0 ec 78 72 3d 8b 21 db 3c 9b b1 15 3e 22 83 9d 3d
       0.05919735 0.026749393 0.14618532 0.07691027
0002e0 bf b0 44 3d 51 f3 24 3d 68 ec cd 3d dd ae 36 bd
       0.04802012 0.040271107 0.100548565 -0.044600356
0002f0 09 a3 b0 3d a1 cd 32 3d 77 b3 ba 3c b0 e4 0c bb
       0.086248465 0.043653134 0.022790654 -0.0021498613
000300 be 4b 70 bb 8e f9 0f bb 50 ad 7a bb 0b b3 83 bd
       -0.003666624 -0.0021968815 -0.0038250275 -0.06430634
000310 7d e8 ce bb 8a fc b0 3d af f9 94 3d dd c4 b1 3c
       -0.006314336 0.08641918 0.07274186 0.021700317
000320 b1 b8 1f 3e 3c 78 05 3e 61 ca 86 3d 86 bd 60 3c
       0.15597798 0.13034147 0.065815695 0.013717061
000330 9d bc ee 3d 23 b4 86 ba a3 2e 0d 3d 23 8d b6 bb
       0.11657069 -0.0010277074 0.034468304 -0.005571024
000340 dd 22 11 3c ca 6e 36 3d ab 3b 70 3d 82 cd 28 3d
       0.00885841 0.04453925 0.058650654 0.041211613
000350 d1 ce 43 3d ca 4d f0 3d 29 f5 d7 bb cb a4 29 3d
       0.047804657 0.11733587 -0.0065905047 0.041416924
000360 21 25 34 3c 3d 4d a5 3c e6 cb ac bc 5d bf 64 3c
       0.01099518 0.020178432 -0.02109332 0.01396164
000370 f2 31 88 3d ab 40 92 3d a2 da 0b bb 8a 5e b4 3c
       0.06650151 0.07141241 -0.0021340032 0.022017736
000380 64 be 97 bc f7 28 6c bc 6d c7 6a bc 40 5c 80 3d
       -0.018523403 -0.014414064 -0.014329773 0.06267595
000390 3c 66 26 3d fa 78 cf 3c 1e b9 e2 3d 71 9a 67 3c
       0.040624842 0.02532624 0.110704646 0.014135943
0003a0 d4 01 d5 3d 29 3a 8e bc 11 e9 22 bc 1c 30 d1 bc
       0.10400739 -0.017361717 -0.009943263 -0.025535636
0003b0 ba 97 0b bc f9 ff 24 3c b3 6a 0d 3b 9e fe 87 bc
       -0.008520061 0.010070794 0.002157849 -0.016600903
0003c0 2b 86 98 bc c3 1e b5 bc 31 1a b6 3c e2 58 28 3e
       -0.018618664 -0.022109395 0.022229286 0.16440156
0003d0 5b e3 2b bb d0 1e a9 3d ef 6d 1f 3c 5c b9 a5 bc
       -0.0026228044 0.0825783 0.0097308 -0.020229988
0003e0 94 49 fe ba 57 97 38 bc a6 6f 0d bd 52 e6 04 3d
       -0.001940059 -0.011266551 -0.034530304 0.032446213
0003f0 f3 c7 96 bc 03 8c c3 3d 45 e8 88 3b 15 6c c6 3d
       -0.01840589 0.095481895 0.0041780793 0.09688584

lstm_layers.0.weight_hh_l0 f4 [512, 128]
000000 95 01 86 ba 6c 38 8d ba 47 21 2a 3b 9e 6a 00 ba
       -0.001022386 -0.0010774261 0.0025959776 -0.00048986997
000010 42 33 2b 3b 66 f5 23 b9 33 f1 cc 39 aa f2 26 bb
       0.0026123081 -0.0001563631 0.0003908962 -0.002547423
000020 0e 06 e0 ba f3 45 d3 ba 6d e7 11 ba 5f 3f d6 ba
       -0.0017091648 -0.0016118869 -0.0005565796 -0.001634579
000030 f3 5f 14 3c 3e bc 87 37 88 c5 5d 3b 06 6f 3f ba
       0.009056079 1.6180911e-05 0.0033839662 -0.00073026156
000040 86 e8 ec ba 55 55 ed ba 50 49 f4 3a 12 7f 05 3b
       -0.0018074668 -0.0018107096 0.0018637571 0.002036993
000050 63 bc 6e bb 2c 04 0f 39 91 af 57 bb 62 80 03 b9
       -0.0036428205 0.00013639097 -0.0032911042 -0.0001254096
000060 3f 19 34 b9 44 ce e4 3a f2 16 48 bb 7b 2e 28 3b
       -0.00017175543 0.0017456491 -0.0030531255 0.002566247
000070 df 57 26 3b e7 08 0e 3b a2 a1 6d 3a 56 69 7b bb
       0.0025381965 0.0021672787 0.00090649177 -0.0038362346
000080 14 76 63 39 d2 46 d9 b7 92 3b 03 39 7b 73 80 3a
       0.00021692395 -2.5901394e-05 0.00012515325 0.0009800041
000090 5d 55 36 39 4b d2 d8 b8 db 84 1e 3b 55 25 83 39
       0.00017388673 -0.00010338853 0.0024188075 0.00025014082
0000a0 70 25 8b 3a e6 64 ce b9 09 68 d9 ba 38 dd bb ba
       0.0010616016 -0.00039366557 -0.0016586791 -0.0014332896
0000b0 18 f7 53 ba 80 08 59 b9 7d 13 27 3a af d0 6d 3a
       -0.0008085831 -0.00020697899 0.00063734484 0.0009071929
0000c0 ac fe 6a 3b f5 fe 62 3b 26 7c 8d 3a f8 ca f7 ba
       0.0035857363 0.003463683 0.0010794445 -0.0018905094
0000d0 50 13 04 bb 6c d0 25 bb 5c 59 6c bb 79 4e b9 3a
       -0.0020153113 -0.002530123 -0.0036064005 0.0014137767
0000e0 37 34 16 3a 06 60 69 39 cc cf 36 3b 8b ce 01 b9
       0.00057298265 0.00022256383 0.0027894853 -0.00012379342
0000f0 de 21 41 3b 41 a3 d8 3a 06 ee 46 3b 28 11 23 3a
       0.002946965 0.0016528146 0.0030354275 0.0006220513
000100 80 72 b4 39 da 0a a6 b9 ab 79 b0 b9 de b6 1b ba
       0.00034417585 -0.00031670072 -0.00033659986 -0.000594003
000110 21 aa 41 ba 5a b5 22 3b 60 07 16 39 3f 33 70 3a
       -0.0007387717 0.0024827332 0.00014307862 0.00091629097
000120 e5 60 30 3b e3 1d 1b bb 13 d3 91 3b 58 3c 29 3a
       0.0026913222 -0.0023668937 0.004450211 0.00064558303
000130 49 65 19 3b 27 07 ac 3a 4a 2d 62 3a c8 f8 ed ba
       0.0023406318 0.001312469 0.00086279644 -0.0018155808
000140 d7 b3 7d bb 2c bd 1c 3b bd e9 92 3a 3d f8 00 3b
       -0.003871193 0.0023916466 0.0011208575 0.0019679212
000150 b3 a7 3e 3b 5e 86 74 bb d3 2f 8e ba 9a 19 32 bb
       0.0029091656 -0.0037311534 -0.0010847993 -0.0027175904
000160 65 eb 5d 3a 50 db 28 ba 64 92 72 39 ad 33 9b ba
       0.00084655575 -0.00064413715 0.00023133453 -0.0011840962
000170 65 8c 25 3b a5 6c dd 3a ee e4 26 39 e9 ca f2 3a
       0.0025260684 0.001689334 0.00015916277 0.0018523607
000180 aa fd f4 ba 15 fa 23 3b 56 42 9b 39 b3 d1 d0 3a
       -0.001869132 0.0025020887 0.00029613328 0.0015931636
000190 29 c0 bf ba 0d e8 0a 3b ed 21 2f bb c8 1d 47 3b
       -0.0014629412 0.0021195442 -0.0026723102 0.0030382741
0001a0 49 f4 2b bc bc 0c c8 ba c6 ba fd 39 74 cf 4a ba
       -0.010495254 -0.0015262584 0.00048395077 -0.00077366014
0001b0 ba e4 da 3a 95 20 e0 3a 27 07 31 3a 68 b1 bf ba
       0.0016700246 0.0017099554 0.000675308 -0.0014625015
0001c0 5e 4f 42 ba 87 36 c9 ba ef f2 9d ba 44 15 81 3b
       -0.00074123393 -0.0015351333 -0.0012050549 0.0039393026
0001d0 2d 7e 63 38 08 91 d1 bb b7 15 ec 38 5d 46 77 3a
       5.4238528e-05 -0.006395463 0.00011257402 0.0009432787
0001e0 3a 7f ab 3a 1e 3a b3 ba ef 5a 0c bb a9 ad 2f bb
       0.0013084181 -0.0013673936 -0.0021416505 -0.002680639
0001f0 55 2b 01 39 bc 4d 17 bb 7a 59 d1 b9 1f 4d 6b bb
       0.00012318541 -0.0023087105 -0.00039930252 -0.0035904122
000200 75 ec 35 3a 18 5c 0d 3a 49 01 36 bb 3a 09 c1 3a
       0.0006939837 0.0005392446 -0.0027771762 0.0014727481
000210 73 af 53 ba 60 c6 42 b9 d0 4b b4 ba 91 92 14 bb
       -0.0008075155 -0.00018575182 -0.0013755504 -0.0022670368
000220 59 4e 3b 3b e1 17 5e 3b 0a 0b 4e ba 75 8a 83 3a
       0.0028580634 0.0033888745 -0.00078599213 0.001003577
000230 34 72 a8 3c 2c f0 09 3a 0c 67 86 b9 bd 36 0f ba
       0.020562269 0.00052619237 -0.00025635248 -0.0005463174
000240 37 c5 4e bb 2c 08 7f ba 22 48 1d bb 6b 81 e4 ba
       -0.0031550655 -0.0009728696 -0.0023999293 -0.0017433589
000250 64 b8 1b bb b7 37 9c 3b 60 2c 08 ba f2 87 a4 b9
       -0.0023761028 0.004767384 -0.00051946007 -0.00031381805
000260 29 04 78 ba cf 22 de b7 ad 65 30 bb fd 5b 80 bb
       -0.0009461069 -2.6480671e-05 -0.0026916072 -0.003917216
000270 3d fc 20 bb ff dc 61 ba cb 91 81 b9 9c f9 8a bb
       -0.0024564408 -0.0008616 -0.00024713422 -0.0042411815
000280 b7 1f 96 39 d5 c6 86 b9 ef e8 e7 b7 a0 a7 fc 39
       0.0002863386 -0.00025706613 -2.7645814e-05 0.00048190076
000290 17 0b 80 39 89 e3 1a b9 25 78 4a 3b 75 e2 e7 38
       0.00024422325 -0.00014771348 0.0030894366 0.00011057119
0002a0 1b 35 8b ba ed 7a d0 b9 77 f4 1e 3b 7a 35 8c 3b
       -0.0010620685 -0.00039764438 0.00242546 0.004278836
0002b0 cf 1b 94 ba 90 17 15 39 f5 fe e1 3a 81 13 3d ba
       -0.0011299792 0.00014218525 0.0017242121 -0.0007212684
0002c0 89 e1 b7 b9 17 02 34 3b f0 36 d3 3a b0 9f ae ba
       -0.00035072517 0.0027467066 0.0016114395 -0.0013322737
0002d0 bf ad 6a ba 6c 4e 0d bb 86 9c 83 bb 03 c5 01 3c
       -0.0008952282 -0.0021561636 -0.004016462 0.007920506
0002e0 cf d6 2e bb 02 1e 01 bb c1 3c 82 3b b0 a8 6a 3a
       -0.002667833 -0.0019701724 0.0039745276 0.0008951528
0002f0 ca 5b 23 3c 6b 6c 5b 3a b8 21 27 3b e2 72 87 39
       0.009970615 0.00083703425 0.0025502276 0.000258348
000300 dd 55 5f 39 3b 84 7d b9 40 c6 a8 37 a4 52 c1 3a
       0.00021298924 -0.0002417722 2.0119478e-05 0.001474936
000310 09 d3 a8 ba 20 ba 44 38 55 7e 1b bb bf 1f 4d ba
       -0.0012880276 4.6903384e-05 -0.0023726423 -0.000782486
000320 cb 9c 36 bb 96 06 82 3b 50 2c ad 3b 6b 0a 1e 3b
       -0.0027864452 0.0039680703 0.0052848235 0.0024115096
000330 27 55 19 3c b0 88 08 3b 73 e6 0c ba ef 44 d9 ba
       0.009358681 0.0020833425 -0.0005374916 -0.001657633
000340 98 6a 73 bb b5 3c 3a bb ac 12 dd ba 60 89 59 3a
       -0.0037142392 -0.0028417532 -0.0016866527 0.00082983635
000350 1e 26 1f 39 34 37 88 bb e6 21 30 ba 9a 57 30 3b
       0.00015177621 -0.0041569714 -0.00067189184 0.0026907683
000360 2a 7f df ba 95 81 0f 3a ad ff 06 39 e5 ca 59 39
       -0.0017051448 0.00054743263 0.00012874482 0.00020770317
000370 17 4b d0 3a 3b 93 0c 3b c8 d9 83 b9 03 c1 1e bb
       0.0015891519 0.002145006 -0.00025148527 -0.002422393
000380 ba 06 cc bb 40 12 b3 3a eb 3c 9b b9 1c d4 d5 3b
       -0.006226388 0.0013662055 -0.0002960929 0.0065255295
000390 27 53 61 ba 5b 3a 4b bb 89 c6 49 ba 64 8e 3a 3a
       -0.00085954595 -0.0031010124 -0.00076971255 0.0007116555
0003a0 61 fc b7 bc ff af 88 bb e1 08 be 3a 0f e4 cf ba
       -0.02245921 -0.004171371 0.0014498496 -0.0015860813
0003b0 ca 09 d5 3a 61 49 86 3a e9 04 bc 3a 06 89 f3 ba
       0.0016253528 0.0010245257 0.0014344725 -0.0018580265
0003c0 17 ec b7 b8 f5 4f 8d ba b1 75 d6 ba 79 4f 48 3c
       -8.770095e-05 -0.0010781275 -0.0016361979 0.012225979
0003d0 1b cd 08 bb 53 80 84 bc 5e ea 98 b9 cb 82 53 3a
       -0.0020874206 -0.016174471 -0.00029166316 0.0008068501
0003e0 d6 18 45 3a 4e 7d 0d 3b 20 a5 59 ba 74 6c 98 bb
       0.00075186545 0.002158958 -0.00083024986 -0.0046516005
0003f0 72 c6 59 ba 4c 0e 05 ba 97 20 b4 b9 db 9c ca ba
       -0.0008307464 -0.0005075678 -0.00034356557 -0.0015458124

lstm_layers.0.bias_ih_l0 f4 [512]
000000 ce 71 a5 bc 10 7f 81 bc 32 bd ad 3d 30 d6 06 bd
       -0.020195868 -0.015807658 0.08483352 -0.03291911
000010 00 7e ae bc 53 09 df 3a e6 29 29 bd 01 4e af 3c
       -0.021300316 0.0017016329 -0.041299723 0.0213995
000020 12 ec fb 3b 8d cc 18 3d 46 f0 3d bc f3 c9 90 3d
       0.007688054 0.03730445 -0.01159293 0.07069769
000030 b5 15 25 bd 1a 53 2c bc 5d b7 34 3d 94 fb 88 3c
       -0.040303905 -0.01051786 0.04412018 0.016721524
000040 65 c2 3e bd 98 c0 43 3d 33 c6 94 3d b4 64 b7 3d
       -0.046572108 0.047791094 0.07264366 0.089547545
000050 ae 0a 72 bc 45 61 84 bb 06 8f 54 3d 40 44 ae bb
       -0.014773054 -0.0040399157 0.05189421 -0.0053181946
000060 25 eb a7 bc 17 56 4c 3c 4c 65 55 bd fb d1 6e bb
       -0.020497868 0.012471697 -0.052098557 -0.0036441076
000070 a6 31 1c bd 58 3d e7 3c 58 ce 4c bc 68 af 29 3d
       -0.038133286 0.028227493 -0.012500368 0.041427046
000080 fe 45 60 bd 41 bd 44 bd 8a d8 61 3c d9 77 c1 bc
       -0.05475425 -0.04803205 0.013784537 -0.023616718
000090 8d 34 ca bb 4c d4 10 bb 62 0f 97 bd 4d 1a d7 bb
       -0.0061708153 -0.0022099195 -0.07375981 -0.0065644146
0000a0 1b 8e 3f 3d a9 f4 c4 ba 21 eb 47 bc 6e db b5 3c
       0.04676638 -0.0015026528 -0.012202055 0.022199359
0000b0 7f 1d 10 bd ba bf b9 bb 73 5c eb 3b 0b 69 62 ba
       -0.03518438 -0.0056686075 0.0071826517 -0.00086368684
0000c0 91 f1 ad 3c 57 c3 bd bc 8b b5 25 bb ff 23 04 3d
       0.021233352 -0.023164434 -0.002528521 0.03226089
0000d0 35 52 3c bd 2b 00 86 3d 5c 60 89 3d fc db 62 3d
       -0.045976836 0.06543001 0.06707832 0.055385575
0000e0 3b 26 1c 3d 6a 50 f9 3b 1b 1e ff bc 67 29 99 bc
       0.038122397 0.007608463 -0.031142285 -0.0186965
0000f0 23 fc 91 bc 67 0b 2a bd ec fe ae bb c7 d4 8f bc
       -0.017820423 -0.04151478 -0.0053404476 -0.017557515
000100 8b df 72 bc e6 ce e3 bb 35 91 ec bb 73 49 fe 3c
       -0.014823805 -0.0069521545 -0.0072194585 0.031040883
000110 69 59 e1 3b aa 3c 8b 3c ff d3 cc 3c 22 7c 1a 3c
       0.0068771136 0.0169967 0.025003431 0.00942901
000120 64 d9 c3 3c 04 a5 93 3d 6a 44 43 3d 14 f7 7d bd
       0.02390737 0.072092086 0.047672667 -0.06200321
000130 0b ef be bc b1 3c e9 3b 4d 8e 44 3c 26 09 38 3d
       -0.023307344 0.0071178307 0.011996818 0.0449306
000140 5c c9 a6 3c 87 21 c9 3d 4c e6 0d bb 86 ee 34 bd
       0.020359688 0.09820848 -0.002165216 -0.044172786
000150 d3 53 88 bc 57 12 42 3d 14 c8 87 bc ee 59 da 3d
       -0.016641533 0.04738077 -0.016574897 0.10661684
000160 35 ae bb bc 94 7c cb bc 05 73 27 3c 44 8d 03 bc
       -0.022910217 -0.024839677 0.010220294 -0.008029286
000170 1b f9 13 bc a9 19 4b 3c 74 07 4d bc 26 f4 95 3d
       -0.009031559 0.012396255 -0.012513984 0.07321958
000180 d3 74 14 bd 13 f2 75 3d 72 d0 5d 3d a2 0e 29 bd
       -0.036244225 0.060045313 0.054153867 -0.04127372
000190 21 89 8f bd f9 36 ac 3d dc 21 88 bc b8 80 36 3c
       -0.07008577 0.08408923 -0.016617708 0.011139087
0001a0 b6 42 9c bc c2 b1 c0 3c 81 52 46 bc 83 da b0 bc
       -0.019074779 0.023522262 -0.012104631 -0.02158857
0001b0 c3 2f 09 3d d5 5a a0 3b b0 4e 34 bd 16 0f 0d bd
       0.033492815 0.0048936405 -0.044020355 -0.034438215
0001c0 83 85 22 bd 94 d4 4c 3d f9 a3 2d 3d f8 f0 28 bc
       -0.039678108 0.050007418 0.042392705 -0.010311358
0001d0 ba 01 04 bc 53 4e 4e bd 7a b8 5c bc 4b e4 46 3d
       -0.008057052 -0.050367665 -0.013471717 0.04855756
0001e0 da 05 fb 3b b5 ea 88 3d 50 e3 2f 3d c5 f0 b0 bc
       0.0076606097 0.06685392 0.04294139 -0.021599183
0001f0 31 10 5d bd 98 ee 07 3d 4f 97 aa ba 1c 4f 38 3c
       -0.05397052 0.033186525 -0.0013015064 0.01124933
000200 0c 0c 20 bd d6 46 91 3c c6 10 4c 3c 21 d8 14 bd
       -0.03907399 0.017733973 0.012455171 -0.03633893
000210 da ec d3 3c 6d d2 4c 3b a4 56 ed 3c 3f 48 24 bd
       0.025869776 0.0031253353 0.028971978 -0.04010796
000220 29 a1 ee 3d 7c 4e 52 3d 66 88 47 bc da 09 5f bd
       0.116518326 0.05134438 -0.012178516 -0.054452755
000230 ec 5f c9 3b 19 45 d3 bc 68 ab 74 3d ce 06 7a 3d
       0.006145468 -0.025789784 0.05973378 0.061041646
000240 4b 01 62 3d 77 53 45 bd f1 32 49 3d 02 52 18 3d
       0.055177014 -0.0481753 0.049120847 0.037187584
000250 b7 78 f1 3c a9 0a 39 3c 71 a9 2a 3d 8e 03 9a bc
       0.029476507 0.0112940455 0.0416655 -0.018800523
000260 e2 8a e3 3b 28 f3 8f bd 9f fc 32 3d ce c6 47 3d
       0.0069440464 -0.070288 0.04369795 0.04877358
000270 88 99 b5 3d bb ca 80 3d 60 09 54 3c 4f 90 3f b9
       0.088671744 0.06288668 0.012941688 -0.00018268939
000280 50 4d 33 bd 8a 21 08 3d e9 aa fe 3b fb 35 ad bc
       -0.043774903 0.03323511 0.007771839 -0.021143904
000290 6d 80 09 bc 8d c4 39 bb a2 3d 12 bd 12 2d 91 bc
       -0.0083924355 -0.0028345913 -0.03570331 -0.017721687
0002a0 49 15 d0 3c d7 a3 9a ba 9d 72 98 3d db aa 8f 3c
       0.025400775 -0.0011798096 0.07443736 0.017537525
0002b0 44 f7 04 bc 11 75 91 3a 79 23 c8 3a 10 16 00 3d
       -0.008115593 0.001109751 0.0015269361 0.03127104
0002c0 44 dc 26 3e 01 af a8 3d d0 e0 8d bc 96 31 f1 bc
       0.16294962 0.08236504 -0.017319113 -0.02944259
0002d0 bc f7 f2 3c b5 be 42 bb ff e9 b1 bc 93 d9 25 bc
       0.029659145 -0.002971572 -0.021718023 -0.0101226745
0002e0 75 90 cf bb 24 d5 0b bd 22 56 58 3d b4 68 2f bc
       -0.0063343593 -0.034138814 0.052816518 -0.0107061155
0002f0 be d1 b2 3c b7 e4 8f bd d4 98 2c bd 00 1f 9e bc
       0.021828528 -0.07026046 -0.042137936 -0.019301891
000300 a1 d0 f2 3a 13 e3 24 bb c8 50 cc bc c3 e5 c2 3b
       0.0018525311 -0.002515976 -0.024940863 0.0059478
000310 3a 4c 5b 3b ac 55 2c bc de c3 4e bc 65 23 43 bd
       0.0033462183 -0.010518473 -0.012619941 -0.047641177
000320 a3 18 74 3d 00 95 17 3d 85 30 33 3d 3e 21 4c 3d
       0.059593808 0.03700733 0.043747444 0.04983639
000330 7c aa b2 3b 5b b9 60 3c 04 0d 0d bd 4a 85 3c 3d
       0.005452452 0.013716067 -0.03443624 0.04602555
000340 af 77 cc 3d 54 55 94 3c 16 af 61 3d 14 96 29 3d
       0.09983765 0.018107094 0.055098616 0.04140289
000350 2a cd 2f 3c 83 2c a6 bc dc 8a 42 3c a6 1e eb 3d
       0.010730067 -0.020284897 0.011873927 0.11480455
000360 ab db 8d bb ba 57 52 bc f1 a7 dc bc 0d 08 df bc
       -0.004329165 -0.012838298 -0.02693555 -0.027225519
000370 6c 4b b7 bc d0 c6 44 3b ce ef f8 bb 6b f5 29 3d
       -0.022374831 0.0030025728 -0.0075969463 0.041493814
000380 d0 37 89 3d ac 39 d9 3c 6a 0a 65 bd 8c 5f 1a bc
       0.067000985 0.026516758 -0.055918135 -0.009422194
000390 78 ed 9b bd 1c 0f 03 bd e2 61 e8 3c af d1 67 38
       -0.07613653 -0.03199683 0.028366987 5.5269975e-05
0003a0 61 f9 8f 3d 33 04 60 bd 94 77 5a bb b1 fa 51 bd
       0.07029987 -0.054691505 -0.0033335434 -0.05126447
0003b0 ab a6 97 3c 86 bf c8 3c eb db 28 3d 81 92 24 3d
       0.01851209 0.024505388 0.041225355 0.04017878
0003c0 22 00 1b bc a9 1a 97 bd 9b fe 43 3d 8b e3 08 3d
       -0.009460481 -0.07378132 0.047850233 0.033420127
0003d0 ec 2a a5 3c d4 4e 89 3d e0 42 be bc 33 55 d1 3b
       0.020162068 0.067044884 -0.023225248 0.0063883304
0003e0 cf b3 b0 bc e8 c6 a4 3d da 98 85 3b e7 f2 91 3d
       -0.021570114 0.08045751 0.004077059 0.07126408
0003f0 7d f6 1b bd 2a 04 ae bd 18 4e e9 bc 26 86 13 bd
       -0.038076866 -0.08496888 -0.02847962 -0.036016606

lstm_layers.0.bias_hh_l0 f4 [512]
000000 f0 77 ee 3b ec 63 22 3d 47 cb 0c 3d 5d e1 83 3a
       0.0072774813 0.039646074 0.034373548 0.001006167
000010 2b a1 32 3c b5 82 56 3c ee b1 9a 3c 09 35 96 3d
       0.010902683 0.013092686 0.018883672 0.073343344
000020 89 67 5b bb 48 6a 81 bc 62 cb b0 bb 51 36 34 3d
       -0.003347846 -0.01579775 -0.005395339 0.043997113
000030 af f2 54 bd 7d 3b 52 3d c0 b1 91 bd 89 2b 92 bb
       -0.051989254 0.051326264 -0.07113981 -0.004460756
000040 52 71 11 3c f5 d0 6e bd 43 7c 36 3d 95 ca a8 bb
       0.008877115 -0.058304746 0.0445521 -0.005151103
000050 c8 f2 2c 3d 00 44 78 bd d5 08 42 3d 95 7b 87 bc
       0.04222372 -0.060611725 0.047371704 -0.01653842
000060 6c 0c 76 bd 0a 34 10 3c 14 6f 93 3d 93 08 b0 ba
       -0.06007044 0.00880147 0.07198921 -0.001343029
000070 66 62 a7 3d 43 f2 89 3d b3 e6 c1 bc 7a b0 7c 3d
       0.08173065 0.06735661 -0.023669576 0.06169174
000080 72 5b c6 3b b7 38 6d bd 46 1d 64 3b 10 af 64 3d
       0.0060533816 -0.057915416 0.0034807487 0.055831015
000090 bf 98 c7 bb 82 04 44 bb 24 c7 db bc 77 16 59 bc
       -0.006091207 -0.0029909913 -0.026828356 -0.013249985
0000a0 60 93 f0 3c f3 d1 98 bb 48 e5 84 3d 26 74 ba bc
       0.029367149 -0.0046637 0.064890444 -0.022760462
0000b0 e8 1c 60 3c 1f 88 b4 bb f5 90 a7 bb d5 7e ce 3b
       0.013678767 -0.005509391 -0.005113716 0.0063017407
0000c0 e7 a7 c9 3d 19 6f 3e bd cb db dc bc 29 4d 91 3d
       0.09846478 -0.04649267 -0.026960274 0.07094795
0000d0 1c 67 35 3d 09 ae 34 3c 5b 0a cd 3c af 5b 59 bc
       0.044287786 0.011027821 0.025029352 -0.013266488
0000e0 9f 06 fc bb 0a 31 52 bb f9 68 0f bd 48 7f d8 3c
       -0.007691219 -0.0032072687 -0.03501222 0.02642788
0000f0 ca b5 dc 3c b8 02 2f bd e1 8a ba 3c 33 c9 cc bb
       0.026942153 -0.042727202 0.0227713 -0.0062495708
000100 15 df ea bb 0a 3d 2d bc 7b d1 ca bb 79 c8 82 bc
       -0.0071677067 -0.010573635 -0.006189523 -0.015964733
000110 95 db fb bc 07 83 89 3d 04 26 02 3d f3 0f cf bc
       -0.030744353 0.067144446 0.031774536 -0.02527616
000120 03 6d b8 3c 46 78 a2 3d 59 34 99 3d 42 8e 94 3c
       0.022512918 0.079330966 0.07480688 0.01813424
000130 6e e9 a2 bc f5 42 63 3a 2e cd 56 3d 6d e3 3b bc
       -0.019886699 0.000866934 0.05244177 -0.011467797
000140 49 f9 a4 3d 21 d2 9b 3d 80 b6 c4 3c 5a 86 c9 ba
       0.0805536 0.07608438 0.024012804 -0.0015375123
000150 66 df 28 bd 20 9d 05 3d 34 d1 e3 bc 18 fe 3b 3d
       -0.041228674 0.03262055 -0.027809717 0.04589662
000160 18 f3 11 3c cf b4 8f bc 4d 34 a3 bc 6f bb c3 bb
       0.008908056 -0.017542271 -0.0199224 -0.0059732716
000170 84 14 37 3d 65 ba 3e 3c 4e c3 86 bb 8c 0e 85 bd
       0.0446973 0.01164112 -0.0041126376 -0.06496915
000180 4d eb 42 3d 41 b3 8b 3d 0a 00 41 bd 07 d6 fe 3c
       0.04758768 0.06821299 -0.047119178 0.031107916
000190 7d c5 91 bd 13 f9 9e 3d 1c f7 2f 3d bc d9 77 bc
       -0.07117746 0.07762351 0.04296027 -0.0151275955
0001a0 16 4a 9a bd df 67 71 3b e4 c3 61 bc ad 2d fe bc
       -0.07533662 0.0036835594 -0.013779614 -0.03102764
0001b0 38 5b 36 bb 29 f6 a2 3c 6f c6 2b 3d d5 30 55 bd
       -0.0027825367 0.019892769 0.041937288 -0.052048523
0001c0 ba b7 9d 3c d8 28 09 3d 54 d9 11 bd 78 45 06 3d
       0.019252647 0.033486217 -0.03560765 0.032781094
0001d0 a9 a3 9e 3c d1 5a 5d bd e2 de a3 3b ed b6 f5 3c
       0.019365149 -0.054041687 0.005000935 0.029994452
0001e0 5d 4e b2 bc 5c 82 9f 3d 1f a2 34 3d d2 55 40 bd
       -0.021765882 0.07788536 0.044099923 -0.046956845
0001f0 59 b8 4d bd ad 03 88 3c 77 c2 8f bc 13 55 18 3d
       -0.050224636 0.016603315 -0.017548783 0.037190508
000200 8f 4a 79 bb 40 d6 0f bd 4b 1f b3 3b 14 90 0e bd
       -0.0038038825 -0.035116434 0.005466377 -0.034805372
000210 b9 50 d1 3d f7 b7 9b bc 91 ad 04 bd e0 db 88 3d
       0.10220475 -0.01900862 -0.03239209 0.06682563
000220 2e 60 bb bc bb 4a 8a bc 2c 13 c5 bb a1 b6 9e 3d
       -0.02287301 -0.016881337 -0.0060142484 0.077496774
000230 d6 2f b3 3d 53 29 25 bd 55 86 67 3c f9 db fe 3b
       0.08749358 -0.040322613 0.014131148 0.0077776876
000240 d6 02 85 bd fa 1b 0f 3d d7 f9 27 3d d9 10 ec bc
       -0.064946815 0.03493879 0.04100975 -0.028816627
000250 a6 60 49 bd 7f 8b b5 3c c4 eb a1 3c 23 ba a3 bc
       -0.049164437 0.022161243 0.019765742 -0.019986218
000260 b3 b6 b5 bb bf f3 17 3d 78 ea 99 bc 07 f5 d6 3d
       -0.005545461 0.03709769 -0.018788561 0.10495954
000270 fc 51 0a 3d 0c bf c4 3c f0 2a 3a 3c c6 f8 27 3d
       0.033769593 0.02401688 0.011362776 0.041008733
000280 af 5f 57 bb 9c d0 58 bd 7a 70 cd bb a3 a3 87 bd
       -0.0032863428 -0.05293332 -0.0062695118 -0.06623008
000290 25 5d 0b bc 03 16 74 bb 51 35 47 3d 20 7e 80 bc
       -0.008506094 -0.0037244565 0.04863483 -0.015685141
0002a0 7a 83 0c bc 49 0e 11 bc 24 f1 32 3d 72 8e 9d 3d
       -0.008576268 -0.0088535035 0.043687 0.07693185
0002b0 b3 8a 70 3a 7d 45 a9 bb 2e d2 1b bc 37 0f f6 bb
       0.0009175941 -0.0051657544 -0.00951056 -0.007509138
0002c0 64 cf a4 3d 8a 6f a3 bc f6 cf 6d bc ee ae 2d 3c
       0.08047369 -0.019950647 -0.014514914 0.0106007885
0002d0 93 72 d1 bb ef a4 59 3d 83 96 71 3c b0 e6 86 3d
       -0.006391832 0.05313581 0.014745357 0.06586969
0002e0 33 67 bc 3c a4 cd fd bc f6 ef 32 3d 4d be 11 3d
       0.022998428 -0.030981846 0.043685876 0.035581876
0002f0 da 82 75 3d fa 70 1b 3d 1e 7f 99 3d ab 5d 21 bc
       0.059939243 0.03794954 0.07494949 -0.009848992
000300 d8 95 48 3a 25 07 be bb 1f d1 6b bc fb 2a 0e bd
       0.0007651723 -0.0057991915 -0.01439312 -0.034708958
000310 9d e7 58 3c 4c 53 0c bd 6b da 6a bb f2 f9 5e bb
       0.013238815 -0.034259126 -0.0035835754 -0.003402349
000320 ce 0b 8f 3c 3a 3b c3 3d 86 ca a3 3d a1 6e 61 bd
       0.017461684 0.09532781 0.07997613 -0.055037145
000330 94 23 af 3c f5 dc 51 3c 02 10 69 bd 34 cd c3 3c
       0.02137927 0.012809028 -0.056900032 0.02390156
000340 d8 1c 3c bc f8 26 1e 3d 84 8e 28 3b 0c bf 6c bd
       -0.011481486 0.038611382 0.0025719712 -0.057799384
000350 d7 52 45 3c d0 11 d3 3c 1e 66 9d bc c7 d6 a8 3d
       0.012043676 0.02576533 -0.019213732 0.082440905
000360 b4 1d 98 bc 95 0b d9 bc f5 33 c7 bc 5c f5 39 3c
       -0.018568851 -0.02649478 -0.024316767 0.011350002
000370 1c 83 fb 3c 00 4c 0e 3d 36 01 0b bb c3 d5 86 bd
       0.030702166 0.034740448 -0.0021210439 -0.065837406
000380 42 2d 2d bd 21 5b 19 bd 30 84 98 bd 32 d2 7a bc
       -0.04227949 -0.037440423 -0.07447088 -0.0153089035
000390 dc c5 a9 3c bd df 0c bd a4 8d ac 3d 0c 88 0a 3d
       0.02072423 -0.03439306 0.08425453 0.03382115
0003a0 ed f0 e9 bc ba 11 e3 3c d8 1b ad 3c 6a 0f 41 bd
       -0.028557265 0.027718414 0.021131441 -0.04713384
0003b0 7b 56 52 3c 4e 41 0e 3d 52 cf 09 bd 7e 35 65 bd
       0.012838001 0.03473025 -0.03364498 -0.055959217
0003c0 38 ae e3 3c 29 29 0e bb 1c 30 bd bc 46 95 95 3d
       0.027793035 -0.0021692014 -0.02309423 0.07303862
0003d0 36 a0 5c 3c 97 33 62 3d f8 e4 6f 3c 19 fe 4e 3d
       0.013465932 0.05522498 0.014641993 0.050535295
0003e0 23 23 10 bd 6b e9 ce 3c c5 3a 43 bc 31 64 73 3d
       -0.03518976 0.025257787 -0.011915867 0.05942172
0003f0 55 45 13 3c 25 0a 5a 3c 0c 31 44 3c 08 14 25 bc
       0.008988698 0.013308083 0.011974584 -0.010075577

lstm_layers.1.weight_ih_l0 f4 [256, 128]
000000 dd 07 be ba 9d 7e c2 ba b4 b4 c9 bb 0b a3 0e 39
       -0.0014498193 -0.0014838759 -0.0061555747 0.00013602914
000010 e8 7f e7 39 1b 39 1e ba d7 1f 31 3a 94 18 af 3a
       0.0004415505 -0.0006035731 0.00067567587 0.0013358765
000020 01 fb 79 b9 dd d9 a2 38 ac 86 ae ba 4c 46 74 3a
       -0.00023839997 7.765342e-05 -0.0013315282 0.00093183364
000030 2a c9 c6 3b 19 2c 59 3b f1 a9 a8 bb cd b7 bd ba
       0.006066461 0.0033137857 -0.0051472117 -0.0014474333
000040 fb 90 8d 38 18 cd 9f b9 c2 0b c4 3a 9e 47 da 3a
       6.750409e-05 -0.0003047965 0.0014957117 0.0016653424
000050 5f c8 0e bb 08 04 85 ba 77 91 46 39 1e a8 a2 b9
       -0.002178691 -0.0010148296 0.00018936941 -0.00031024305
000060 b3 ef 63 3a 8f f2 af 3a 3f 5e 06 bb d0 94 91 3a
       0.0008695081 0.0013423729 -0.0020502952 0.0011106972
000070 ee ff 18 ba d5 2e 49 3a ee 70 80 3a c4 96 36 bb
       -0.00058364763 0.000767452 0.0009799281 -0.002786086
000080 62 bc d9 b9 d3 fb c9 3a 7e 75 02 b9 c9 04 8f 3a
       -0.00041529821 0.0015410132 -0.00012441535 0.001091146
000090 65 a0 46 39 99 7b 43 ba 34 c4 0a 3b d7 cc 99 b9
       0.00018942503 -0.0007457077 0.0021174075 -0.00029335052
0000a0 36 e1 61 3b 99 b0 8d ba 8b dd dd bb 04 a7 2a bb
       0.0034466512 -0.0010810076 -0.0067707947 -0.002603949
0000b0 3f b0 7f b9 0f 7b 2a ba 5c c4 b9 ba c4 94 c2 39
       -0.00024384352 -0.00065033225 -0.00141729 0.00037113403
0000c0 f4 54 c0 3a c3 55 1f 3b 14 8c 47 3b c6 4f 48 bb
       0.0014673756 0.0024312593 0.0030448483 -0.0030565127
0000d0 ef 02 32 bb 98 25 02 bb ff 41 99 ba 95 ed 30 3a
       -0.0027162393 -0.0019858833 -0.0011692642 0.00067492697
0000e0 fd 59 6d 3b 88 93 f2 3a f4 3a 43 3b b6 92 12 3b
       0.0036216967 0.0018507103 0.0029789777 0.0022365279
0000f0 39 d9 3c 39 a7 38 9d 3a 90 85 5a 3b 1f 6f e1 38
       0.00018009999 0.0011995033 0.003334377 0.00010749534
000100 cd c0 5e 3a b5 50 36 ba 15 9f 94 ba 57 d6 03 39
       0.00084973575 -0.00069547753 -0.0011338914 0.00012572981
000110 f1 9a 7f ba be 31 96 3a 91 e9 1e 3b d3 a7 56 ba
       -0.0009750566 0.0011458916 0.0024248103 -0.000818846
000120 13 6b 26 3b 7f 51 d2 b9 9d 5d 92 3b 85 22 3d b8
       0.002539341 -0.0004011504 0.004466726 -4.509326e-05
000130 90 2e d0 ba 8b 54 94 3a 46 ec 88 3a d9 ec 33 bb
       -0.0015883017 0.00113167 0.0010446392 -0.0027454405
000140 07 fb ef b9 c2 d6 cd 3a f6 fe b0 3a 3c 0b 84 b9
       -0.00045772662 0.0015704262 0.0013503719 -0.00025185372
000150 a2 16 1a 3b 19 9c 59 3a 7f 6e d8 ba 04 bc 8a 3a
       0.0023512025 0.00083011534 -0.0016512423 0.0010584597
000160 5a 5f 86 3a 7c ed fa ba c9 21 3b 3a 3e e2 01 bb
       0.0010251806 -0.0019144262 0.0007138518 -0.0019818689
000170 10 6a c8 3a a4 8f a8 39 8d fa 0b 3a 3d 6e 06 bb
       0.0015290398 0.00032150478 0.0005339764 -0.0020512484
000180 a2 2c 39 3b 29 3f bb 3a d8 44 e1 b9 57 f2 45 bb
       0.0028255363 0.0014285791 -0.00042966637 -0.003020426
000190 88 0f 13 3b 9e df 33 ba 83 df 72 3b ea 4c db 3b
       0.0022439677 -0.00068616297 0.0037059493 0.0066925185
0001a0 a1 00 ed ba 81 6e 6b ba 88 59 c0 39 8f 75 20 ba
       -0.0018081852 -0.0008981005 0.000366878 -0.0006121033
0001b0 da a6 39 3b 03 2e 84 3a fe 5d 35 bb 7c c2 43 bb
       0.002832821 0.0010084513 -0.0027674432 -0.002987056
0001c0 b7 0d b4 b9 7f 1e 24 bb e6 a3 00 bb 8b 48 c9 39
       -0.00034342494 -0.002504259 -0.001962894 0.00038391756
0001d0 a6 ed 03 3a bf 17 f7 ba b6 12 a8 39 fa 5d d1 39
       0.0005032666 -0.0018851681 0.00032057398 0.00039933604
0001e0 1c d8 4e 3a d8 06 b5 ba a5 d4 26 3b ab 70 08 bb
       0.0007890479 -0.0013811244 0.0025456336 -0.0020819108
0001f0 5b da 35 3a 88 11 b0 ba f3 4d a8 ba e8 e1 18 bb
       0.00069371396 -0.0013432959 -0.0012840613 -0.002332801
000200 07 2a a8 ba b1 89 0f ba 80 22 b9 3a e6 e7 87 ba
       -0.0012829908 -0.00054755347 0.0014124662 -0.0010368794
000210 23 40 16 ba ba 44 bf b9 7c d2 fc 3a 0f f7 c5 b8
       -0.0005731603 -0.00036481564 0.0019288803 -9.43971e-05
000220 3a d4 26 ba 87 a1 90 ba a1 6a 27 b9 7f 0a 1d bb
       -0.00063640217 -0.0011034467 -0.00015966083 -0.0023962555
000230 71 92 cc ba 9a 63 41 ba 50 e7 3c bb d3 cc 41 ba
       -0.0015607608 -0.00073772075 -0.0028824396 -0.0007392887
000240 b1 00 33 39 1b d0 7a 3a 30 90 8f ba 4e 8c 0c 3b
       0.00017071028 0.00095677533 -0.0010953005 0.0021445933
000250 d3 b3 d3 ba a9 e6 92 ba 81 bd 52 ba 57 37 eb 39
       -0.0016151614 -0.0011207658 -0.00080391025 0.00044863924
000260 56 d5 a9 39 79 e7 4e 3a d5 9c eb 39 02 20 c6 ba
       0.0003239314 0.00078927685 0.00044939542 -0.001511574
000270 13 85 8e 38 73 88 a3 3a 6e 05 48 3a 8c 6f 44 3a
       6.795875e-05 0.0012476578 0.00076302036 0.00074934284
000280 a0 d3 1b b9 0a 6d 97 38 5e 72 0d 3a 3d 0e 6b 39
       -0.00014860788 7.220551e-05 0.0005395765 0.0002241665
000290 49 b9 83 39 30 bb 12 ba 29 d8 c9 b9 b2 47 69 b9
       0.00025124315 -0.0005597351 -0.0003849876 -0.0002224732
0002a0 46 84 ff 3a f6 8f 05 ba 6c 21 2c bb d6 b7 83 3a
       0.0019494377 -0.0005094999 -0.0026265038 0.0010049294
0002b0 69 6b 0d 3a 31 97 26 39 0e 2e 2b ba e6 ba e9 3a
       0.00053947285 0.00015887317 -0.0006529995 0.0017832189
0002c0 6a e9 82 bb a1 48 67 ba 29 75 b2 3a b3 29 f2 ba
       -0.0039951103 -0.0008822773 0.0013615239 -0.0018475562
0002d0 e3 db c5 39 6e ec f3 39 11 f3 81 3a 93 b5 5e ba
       0.00037738596 0.00046524726 0.0009914358 -0.00084956846
0002e0 9b d8 1f 3b fa 46 57 3a a8 a2 3a ba c0 4b b7 3a
       0.0024390582 0.00082121755 -0.00071195746 0.0013984367
0002f0 e3 74 35 bb e8 89 1d 3a fd e9 c4 39 dc 7e 50 3a
       -0.0027688078 0.00060096243 0.00037558368 0.0007953474
000300 4f 06 91 39 95 2b fb b9 cb a0 0b ba 23 38 bd ba
       0.00027661255 -0.00047906922 -0.0005326389 -0.0014436286
000310 44 fb 9f 3a 34 62 61 3a 68 b7 4e 3b f8 15 d7 3a
       0.001220562 0.0008597702 0.0031542424 0.0016409745
000320 bb 85 9b ba 2b 5f de ba 2c ee 03 3a 62 51 ae 3a
       -0.0011865416 -0.0016965618 0.0005032744 0.00132994
000330 6d 23 8d ba ec c4 0d ba fd 74 90 3a da 91 53 39
       -0.0010768004 -0.0005408067 0.0011021193 0.00020176862
000340 f3 82 ef b9 75 be 8e 39 5c 12 56 3a fc 1f 26 38
       -0.00045683197 0.00027226252 0.0008166188 3.9607272e-05
000350 2b 6a 1e ba fa 75 05 3b 2e 06 48 b9 1f bd 92 3a
       -0.0006043042 0.002036451 -0.00019075788 0.0011195278
000360 e7 fe 15 3a 15 76 d4 ba 76 21 3f 3a f9 40 65 ba
       0.00057218823 -0.0016209508 0.0007291058 -0.00087453384
000370 85 05 70 39 24 6f c8 b9 cc b0 bc b8 b9 65 ac 39
       0.0002289024 -0.0003822978 -8.9974696e-05 0.00032882186
000380 23 65 e9 3a b9 69 9d ba 2b e5 4e 3a 4c bf 99 3a
       0.001780663 -0.0012009657 0.0007892425 0.0011729985
000390 36 fe 07 38 d9 e7 7c ba 16 a6 b2 3a ef 12 3a 3a
       3.242326e-05 -0.0009647585 0.001362982 0.0007098158
0003a0 86 64 07 39 75 13 04 b9 90 b3 4b ba 24 fa c8 39
       0.00012912051 -0.0001259575 -0.00077705923 0.00038333342
0003b0 f0 60 a3 3a 84 72 01 39 c8 50 d1 b9 8c 5f de ba
       0.0012464803 0.00012345059 -0.00039923773 -0.0016965731
0003c0 c2 71 b9 b9 ea 31 08 b9 d8 e6 6a 39 33 8a 2c bb
       -0.00035370706 -0.00012988565 0.00022401975 -0.002632749
0003d0 7a 5d 46 39 a6 f5 88 39 29 a0 ae 39 e3 d6 47 3a
       0.00018917574 0.00026122964 0.00033307195 0.0007623268
0003e0 db 1e 7b 3a 9d c3 85 bb 5f 88 29 ba c2 c9 a9 3a
       0.0009579488 -0.004082157 -0.0006467159 0.0012953805
0003f0 19 8d 07 ba e9 c6 74 39 17 da 09 ba 2b b8 d4 3a
       -0.00051708665 0.00023343753 -0.0005258633 0.0016229203

lstm_layers.1.weight_hh_l0 f4 [256, 64]
000000 8b 31 1d 3b 64 a6 03 3b 21 1f 2d 3a 1a 95 2d 3b
       0.0023985829 0.002008819 0.0006604065 0.0026486577
000010 68 f2 55 3a 46 39 fb bb f2 a7 a6 3b cb bb 4e 3b
       0.00081614265 -0.0076667396 0.0050859386 0.0031545039
000020 3b 8a bc b9 3a c7 78 ba fb b8 23 bc d6 e0 67 b9
       -0.00035961144 -0.0009490136 -0.009992833 -0.00022113635
000030 7d 0c b1 b9 b0 aa dd 39 0b 74 de 3a b0 b1 61 3b
       -0.00033769375 0.00042279577 0.0016971839 0.0034438185
000040 27 a5 cf b9 b9 65 26 3a ef 14 07 3b 93 73 67 3a
       -0.00039605165 0.00063475553 0.0020611843 0.00088291726
000050 14 0d 82 ba 20 06 9c ba e3 eb a2 b9 54 aa 97 39
       -0.000992211 -0.0011903681 -0.00031074797 0.0002892787
000060 9c e5 88 3a 9e 79 1a bb 0a 6a 26 bb ac 27 81 b8
       0.0010444405 -0.0023571025 -0.0025392794 -6.158589e-05
000070 fd f6 e2 39 98 b4 8e 39 d1 50 1f bc cd 66 0d 3b
       0.000432901 0.00027218903 -0.009723858 0.0021576167
000080 63 b3 0b bb c6 34 ec 3a 03 3d 21 b9 79 2a 6c ba
       -0.002131664 0.0018021099 -0.00015376885 -0.00090090145
000090 67 12 df ba e2 62 e8 3a 16 d9 4f 3a 5e 6a 27 3b
       -0.0017019034 0.0017729665 0.00079287717 0.0025545578
0000a0 02 fd a7 3a d2 3b 57 3b 35 02 e9 bb 5c b3 52 3a
       0.0012816491 0.0032842052 -0.007110859 0.0008037591
0000b0 c2 fd 3d bb 12 a6 2e b9 b6 9f 45 3b 7e f0 85 3a
       -0.0028990363 -0.00016655799 0.003015501 0.0010218767
0000c0 5e 13 df ba d7 33 45 bb a7 bf 02 3b 62 7c e3 39
       -0.0017019322 -0.0030090713 0.001995066 0.00043389486
0000d0 6e 08 35 3a c2 82 9f 3a 7d 39 17 3a ee 8e 64 bc
       0.0006905858 0.0012169706 0.00057687593 -0.013950093
0000e0 35 00 9a ba 80 95 0c bb b7 6a 91 3a ac b0 80 3c
       -0.0011749329 -0.0021451414 0.0011094426 0.015709244
0000f0 2a fa 2d b9 10 60 90 bb 9c e5 f1 3a 9e 38 31 3b
       -0.00016591759 -0.004405983 0.001845527 0.0027041803
000100 7c 6d 16 3a 36 93 03 3b c2 72 24 38 ca a1 49 ba
       0.00057383603 0.0020076758 3.9207524e-05 -0.000769165
000110 2a 48 ab 3a fb ed 6d b9 7b c3 82 ba 45 7c 81 3a
       0.0013067771 -0.00022690736 -0.0009976471 0.0009878954
000120 7c 01 a5 3a 0c 9a 0a 39 e2 d4 0b 3b bc 11 92 3a
       0.0012588943 0.00013218092 0.0021336605 0.0011144201
000130 ae c9 52 39 5e f5 69 3a 19 c3 17 3a 8c 2b 5b 3a
       0.00020102292 0.0008924807 0.00057892647 0.0008360676
000140 0f bb 92 ba 51 51 79 3a 52 6a 1c 3b 85 ab 38 3a
       -0.0011194664 0.0009510713 0.0023867083 0.00070446014
000150 4d c3 47 3b 12 a3 f3 b8 e1 8c 1c ba fe ac 54 ba
       0.0030481399 -0.00011617517 -0.00059719203 -0.0008112936
000160 d1 89 b7 3a 87 6c 33 3a 88 fb 95 3a 0e df 50 39
       0.0014002864 0.000684448 0.001144276 0.0001991952
000170 98 c2 dc b9 71 42 d3 3a c0 18 ee ba 93 8a 86 3a
       -0.00042106654 0.0016117824 -0.0018165335 0.0010264687
000180 5e f3 83 b9 eb d4 f6 3a 18 d9 9e ba e2 14 1e 39
       -0.0002516759 0.0018831765 -0.0012119142 0.00015075834
000190 cd 48 18 ba 67 e6 9b b9 06 cf c4 37 be b1 81 ba
       -0.0005809188 -0.00029735567 2.3461424e-05 -0.000989489
0001a0 d9 e2 90 b9 ba ba 6f b9 98 9e 50 3b f0 b0 45 ba
       -0.00027634835 -0.00022862377 0.003183281 -0.00075413194
0001b0 46 b3 66 b8 d1 9b 25 39 df a2 35 b9 71 53 93 ba
       -5.5003235e-05 0.00015793672 -0.0001732218 -0.0011240077
0001c0 24 2c 09 3a d2 50 8a 3a e9 b8 24 b9 cc a4 2e b9
       0.0005232713 0.0010552651 -0.00015709143 -0.00016655325
0001d0 88 44 8b 39 ed 91 6f 3a 01 bd 0f 3a 3e 41 8f 3a
       0.00026563206 0.0009138871 0.0005483181 0.0010929478
0001e0 d9 1e f0 b8 07 be 3c 3a 0e 18 e8 39 21 e3 34 bb
       -0.000114498376 0.0007199947 0.0004426841 -0.00276012
0001f0 36 5f a8 3a 5e 96 77 36 7f 7f 70 ba a9 c4 16 3a
       0.0012845758 3.6893393e-06 -0.0009174272 0.00057513505
000200 09 09 37 bb fa 5e ea 39 aa 7e 6a 3a dc 62 7b bb
       -0.002792897 0.0004470272 0.0008945266 -0.0038358485
000210 1f 50 e5 39 67 72 d5 3b 28 e7 24 bc 13 9c 91 3a
       0.0004373798 0.006513882 -0.010064878 0.0011109136
000220 56 27 44 3b ce 73 d4 3a 63 9a 2b bb 7c df 6f 3a
       0.0029930673 0.0016208829 -0.002618455 0.0009150428
000230 20 89 be 3a 94 5b f6 3a 15 3a 69 ba 99 2a 4a bb
       0.0014536716 0.0018795603 -0.00088968995 -0.0030848144
000240 5d f4 3c ba cf 55 6c ba 36 9a 14 38 af ec 97 b9
       -0.0007208044 -0.0009015472 3.542957e-05 -0.00028977307
000250 85 36 9d 3b cc 9a af 3a e9 b8 c4 ba eb 61 c2 ba
       0.004797759 0.0013397573 -0.0015008721 -0.0014830207
000260 f0 76 d0 3a 0d 96 77 3b 92 f1 6f 3b 62 3c d5 39
       0.0015904587 0.0037778646 0.0036612493 0.00040671515
000270 45 6c d1 3a ce a2 10 bb 7c 06 86 3b 4c ad 76 3a
       0.0015977701 -0.0022069695 0.0040901285 0.00094099785
000280 12 61 0d 3b 61 39 07 b9 80 7e 9e ba fd 80 95 ba
       0.002157275 -0.00012895979 -0.0012092143 -0.0011406239
000290 a2 3e 56 ba 65 c8 89 39 8c b7 5f b9 8a 69 a0 ba
       -0.0008172785 0.00026279982 -0.00021335314 -0.0012238484
0002a0 c0 5a 05 bb 43 e2 47 bb 97 2e d0 3c 48 e9 a3 ba
       -0.002034828 -0.0030499853 0.02541284 -0.0012505436
0002b0 ae df 9f 3b a9 ce fd 39 0a a6 c8 39 76 25 9c bb
       0.0048789596 0.00048409894 0.0003827068 -0.004765208
0002c0 ec 05 18 3b 21 da 02 bc fd 48 33 bb f3 1f 01 ba
       0.002319689 -0.007986576 -0.0027356737 -0.000492572
0002d0 6b 8f 59 3a 4c 73 a0 39 fc 2f 4f bb bd 45 03 bb
       0.0008299264 0.0003060348 -0.0031614294 -0.002003058
0002e0 90 76 0e 3b 9c 5a de 3a 92 d2 ca 39 aa 95 13 3b
       0.002173815 0.001696426 0.0003868533 0.0022519627
0002f0 32 28 2b b9 31 ee b7 39 79 bb 7b ba 4e b3 f6 ba
       -0.00016322805 0.00035081946 -0.0009602826 -0.0018821748
000300 44 29 33 39 f2 80 1d bb 5a 28 97 ba d7 35 08 3b
       0.00017086143 -0.0024033156 -0.0011532411 0.0020784044
000310 cf 0c 8f ba 72 3c 41 bb 11 69 27 bc 72 34 05 bc
       -0.0010913851 -0.002948549 -0.010217921 -0.00813018
000320 a6 0b 27 bb f2 ca ca 3b 73 bf 48 bb ea 75 a1 3a
       -0.002548912 0.0061887437 -0.003063169 0.0012318466
000330 cd 7e 52 bb f1 41 25 ba a1 f8 59 bb e1 ba 88 39
       -0.0032119036 -0.00063040765 -0.0033259767 0.00026079177
000340 cb d5 17 3b 55 50 01 bb c3 5e 3f bb a2 e5 c7 ba
       0.0023168202 -0.001973172 -0.002920077 -0.0015250931
000350 0d 20 b9 bb e1 31 a6 ba 80 64 1a 3b 49 8c fe 3a
       -0.0056495727 -0.001267966 0.0023558438 0.001942047
000360 68 71 93 bb c9 c6 12 bb 18 6c 55 3b 32 ee 7b ba
       -0.004499603 -0.0022396317 0.003256565 -0.0009610384
000370 3e ce 1b bb 57 06 d1 3a 64 01 39 bc ca e6 e8 ba
       -0.0023774053 0.0015947324 -0.011291835 -0.0017768976
000380 5b 6a 2d 3b 3a 52 1a bb d7 47 29 3b 92 8f a9 39
       0.0026461098 -0.0023547546 0.0025830173 0.0003234116
000390 5b 2a c0 ba f8 e6 fe ba f7 77 8f ba 20 51 d7 ba
       -0.001466106 -0.0019447496 -0.0010945786 -0.0016427375
0003a0 4d b8 30 3b c2 38 9d 3a 7e 5d ea 3a fb f4 4d 3a
       0.002696532 0.0011995065 0.0017880646 0.00078566343
0003b0 0f c5 83 3b 97 db a9 ba 44 b9 c4 ba 0a e4 34 3a
       0.004021294 -0.001295912 -0.0015008827 0.00069004355
0003c0 12 c5 ed 38 b7 00 3f bc 31 cb 25 3b bc 4a 31 ba
       0.00011337748 -0.011657885 0.0025298113 -0.00067631504
0003d0 a8 09 00 bb 18 b4 35 ba e6 5b 85 39 8a bc a0 bc
       -0.0019537006 -0.0006931438 0.00025436206 -0.019621152
0003e0 9b 63 06 b8 ea 5b 53 3a 29 9a ed ba 2c 72 c9 bc
       -3.2040854e-05 0.00080627075 -0.0018127608 -0.024590574
0003f0 04 05 1f bb 05 26 ee ba 1d a2 e7 ba 4d fb 18 bb
       -0.0024264464 -0.001816929 -0.0017672215 -0.0023343146
