models/lstm/CNC-MAZAK-01_CNC01_SPINDLE_TEMP_lstm.pt (torch, 498510 bytes, 15 tensors)

lstm_layers.0.weight_ih_l0 f4 [512, 1]
0	0x36aba4a1	5.1153625e-06
1	0xb611765a	-2.1675573e-06
2	0x36461207	2.9514792e-06
3	0x365bb9f3	3.274178e-06
4	0xb5a7db8a	-1.2506364e-06
5	0xb584fe2f	-9.908744e-07
6	0xb350609b	-4.8516636e-08
7	0xb6fc8183	-7.5252624e-06
8	0xb4078ad4	-1.262336e-07
9	0xb27e5ed5	-1.4806308e-08
10	0xb235102c	-1.0539264e-08
11	0xb71a9504	-9.213811e-06
12	0xb60b2908	-2.0736497e-06
13	0xb8091700	-3.2684766e-05
14	0xb69b4b31	-4.6281134e-06
15	0xb18cbd3e	-4.0960506e-09
16	0xb51e31fd	-5.893233e-07
17	0xb5812658	-9.622408e-07
18	0xb525fba2	-6.1833464e-07
19	0xb2419189	-1.1267169e-08
20	0xb6aa2be3	-5.071504e-06
21	0xb7466fb0	-1.1827724e-05
22	0xb68f8598	-4.2772845e-06
23	0xb5dcd7fe	-1.6454139e-06
24	0xb5be12ac	-1.4161537e-06
25	0x33e63728	1.07202425e-07
26	0x3688e5c5	4.0798645e-06
27	0xb3c1f2fc	-9.0314614e-08
28	0xb31c597f	-3.6402977e-08
29	0xb64fb753	-3.0952112e-06
30	0xb606aab4	-2.0066918e-06
31	0x37e3a2ba	2.7136284e-05
32	0xb40b347c	-1.2964477e-07
33	0xb4317eaa	-1.653049e-07
34	0xb6731475	-3.622173e-06
35	0xb4fa5187	-4.6625448e-07
36	0x37920c28	1.7410217e-05
37	0xb779439c	-1.4857298e-05
38	0xb5b77933	-1.3669836e-06
39	0xb457d79b	-2.0101872e-07
40	0xb66ebef0	-3.5575904e-06
41	0x38181d6b	3.626702e-05
42	0x3357346a	5.010626e-08
43	0xb55df147	-8.268002e-07
44	0x359ae1ad	1.1539574e-06
45	0xb462a939	-2.1109453e-07
46	0xb4f6457f	-4.5871636e-07
47	0xb6269b88	-2.4826459e-06
48	0xb605a297	-1.9913184e-06
49	0x372f6e21	1.0456454e-05
50	0xb3d69c89	-9.993625e-08
51	0xb310f336	-3.374881e-08
52	0xb8279265	-3.9952243e-05
53	0x3543512b	7.2761276e-07
54	0xb5359a67	-6.765244e-07
55	0xb26ce810	-1.3789773e-08
56	0xb62e3a71	-2.5962038e-06
57	0xb5ec4151	-1.760238e-06
58	0x3630b89e	2.6333505e-06
59	0x331b1c63	3.6114567e-08
60	0x34ed0206	4.4146162e-07
61	0x35cb2abe	1.5137118e-06
62	0x3702249c	7.757128e-06
63	0xb20b6d20	-8.115677e-09
64	0xb139cdad	-2.7037956e-09
65	0xb61cd1ad	-2.3367859e-06
66	0xb4bccee6	-3.5168267e-07
67	0xb72839b8	-1.0027019e-05
68	0xb52b7227	-6.386858e-07
69	0xb575c719	-9.155934e-07
70	0x34d39003	3.9406595e-07
71	0xb45315e8	-1.9658876e-07
72	0xb3ebfbcf	-1.0988844e-07
73	0xb62d65fb	-2.583837e-06
74	0xb3ab3ce1	-7.973882e-08
75	0xb38e55cd	-6.627997e-08
76	0xb64985d1	-3.0029225e-06
77	0xb567bb0e	-8.6326406e-07
78	0x36988b7f	4.5461925e-06
79	0xb3b94e05	-8.6289255e-08
80	0xb4ce93c1	-3.8477995e-07
81	0xb470a2a3	-2.2410909e-07
82	0xb7e7e415	-2.7643555e-05
83	0xb6d7cbce	-6.4312253e-06
84	0xb29e0a42	-1.8398286e-08
85	0xb3ec11ad	-1.09928216e-07
86	0x35c7ab8a	1.487658e-06
87	0x338ea862	6.643019e-08
88	0xb49fe8b3	-2.978537e-07
89	0xb60b3718	-2.0744683e-06
90	0xb23b23cc	-1.0892972e-08
91	0xb4edec00	-4.4316403e-07
92	0xb5053ed3	-4.963778e-07
93	0xb691b99c	-4.3429445e-06
94	0xb5c7a4fc	-1.4874672e-06
95	0xb41f9dea	-1.4865478e-07
96	0x33a3e49f	7.631865e-08
97	0xb6349da7	-2.6913856e-06
98	0x36e28d0f	6.7517462e-06
99	0xb603e172	-1.9651748e-06
100	0xb6adc56b	-5.1787842e-06
101	0x334db99f	4.7899103e-08
102	0xb5288d05	-6.279009e-07
103	0x3714f94b	8.8795305e-06
104	0xb455d46c	-1.991445e-07
105	0x32b261fc	2.0766485e-08
106	0xb4b859ec	-3.4338098e-07
107	0xb6a167ce	-4.8102584e-06
108	0xb21d70a9	-9.164219e-09
109	0xb612b73e	-2.1862356e-06
110	0x35265d0e	6.197523e-07
111	0x332fcc2d	4.093106e-08
112	0xb51f6385	-5.9376936e-07
113	0xb80bda4a	-3.334348e-05
114	0x35b16645	1.3217292e-06
115	0xb820d03e	-3.8340913e-05
116	0xb3c7b48a	-9.2994995e-08
117	0xb6190273	-2.2800202e-06
118	0xb5a0a1e4	-1.1968045e-06
119	0xb47f518e	-2.3778395e-07
120	0xb55d3295	-8.240252e-07
121	0xb74a74f9	-1.2067373e-05
122	0x358b4b8a	1.0378292e-06
123	0xb2c5d959	-2.3032657e-08
124	0x3226845d	9.692568e-09
125	0xb2c9f3fa	-2.3510427e-08
126	0xb45bbfb8	-2.0465711e-07
127	0xb32a1d02	-3.9607592e-08
128	0xb64aaaac	-3.019969e-06
129	0xb5e4745d	-1.702119e-06
130	0xb5ae50a3	-1.2987479e-06
131	0x3685d18d	3.988104e-06
132	0xb5184292	-5.6721285e-07
133	0xb63068dc	-2.628708e-06
134	0xb1d628d9	-6.2328636e-09
135	0xb707a421	-8.084841e-06
136	0xb4650c7c	-2.1331829e-07
137	0xb3c4cdc4	-9.16439e-08
138	0xb317c9b2	-3.5340868e-08
139	0xb76cbc4f	-1.411054e-05
140	0xb5eb9abd	-1.7553899e-06
141	0xb7f734b5	-2.9469238e-05
142	0xb6b2a16c	-5.3236054e-06
143	0xb55b0d38	-8.1603093e-07
144	0xb5d7859d	-1.6057635e-06
145	0x3601c434	1.9336703e-06
146	0xb57e9277	-9.483551e-07
147	0xb388670f	-6.35174e-08
148	0xb692e3f3	-4.377676e-06
149	0xb6a4ed93	-4.915238e-06
150	0xb69ba79a	-4.6388714e-06
151	0xb5cfdca2	-1.5486914e-06
152	0xb68b227d	-4.146538e-06
153	0xb3e176dd	-1.0499e-07
154	0xb5b8937d	-1.3751993e-06
155	0xb2212860	-9.380614e-09
156	0xb3cda0f7	-9.575336e-08
157	0xb65144f1	-3.1183556e-06
158	0x360ddd8e	2.11396e-06
159	0x37d38953	2.5217107e-05
160	0xb3dd5afe	-1.0307666e-07
161	0xb432dc2f	-1.6657644e-07
162	0xb697be36	-4.522294e-06
163	0xb5f044ed	-1.7901453e-06
164	0xb68849b4	-4.061696e-06
165	0xb7618c2c	-1.3443681e-05
166	0x36487ca8	2.9874882e-06
167	0x3310c7ba	3.3709263e-08
168	0xb69eaef4	-4.729134e-06
169	0x38184c94	3.6310943e-05
170	0xb53c329f	-7.010912e-07
171	0xb5693d51	-8.688849e-07
172	0x3546dae2	7.4079264e-07
173	0xb34c5b4c	-4.7580485e-08
174	0xb42c7f4d	-1.606506e-07
175	0x354b7e72	7.5807395e-07
176	0xb6197749	-2.286821e-06
177	0x3758b951	1.2917751e-05
178	0xb4f95345	-4.644045e-07
179	0x34460473	1.8441806e-07
180	0xb8119817	-3.471234e-05
181	0x3521ddf0	6.0300135e-07
182	0xb40617d2	-1.2488388e-07
183	0xb5870a28	-1.006124e-06
184	0xb624a88e	-2.4536016e-06
185	0xb62e856b	-2.600568e-06
186	0xb4dd7d93	-4.1255825e-07
187	0xb37f744a	-5.947758e-08
188	0xb737477a	-1.0924292e-05
189	0x35c75026	1.4849982e-06
190	0xb5b28215	-1.3299892e-06
191	0xb2928207	-1.7055767e-08
192	0x33ea8f15	1.09225006e-07
193	0xb63973e9	-2.7634617e-06
194	0xb426f9bb	-1.5550806e-07
195	0x33eb202e	1.0948894e-07
196	0xb4e55179	-4.2713853e-07
197	0xb5902107	-1.0738448e-06
198	0xb660e046	-3.3509145e-06
199	0x347a1df8	2.3293967e-07
200	0xb4296246	-1.5775103e-07
201	0xb67f8a68	-3.8078524e-06
202	0xb4355ecb	-1.6891424e-07
203	0x35bbc2aa	1.398924e-06
204	0xb665f52a	-3.4266363e-06
205	0xb4f9129a	-4.63934e-07
206	0xb60b7ce4	-2.078531e-06
207	0xb4f85778	-4.6257242e-07
208	0xb59cc841	-1.1681187e-06
209	0xb4baa9c1	-3.4768712e-07
210	0x360e1fd4	2.1178175e-06
211	0xb68e6027	-4.2431234e-06
212	0xb323e3d4	-3.8158603e-08
213	0xb32d8e26	-4.0408985e-08
214	0x356c97c4	8.81377e-07
215	0x32bb5151	2.1806644e-08
216	0xb32b2aec	-3.9853077e-08
217	0xb5ba9fb6	-1.3904562e-06
218	0xb30e0175	-3.3063277e-08
219	0xb5016de9	-4.8216185e-07
220	0xb295c395	-1.7434823e-08
221	0xb638f4b7	-2.756058e-06
222	0xb5a78521	-1.2481215e-06
223	0xb4d3fcca	-3.948574e-07
224	0xb4a1c3a1	-3.0130926e-07
225	0xb638f4bc	-2.756059e-06
226	0x369f9e94	4.75703e-06
227	0xb5817b43	-9.647123e-07
228	0xb51396d9	-5.498128e-07
229	0x34a45bda	3.061421e-07
230	0xb50de685	-5.2862043e-07
231	0xb5cab9aa	-1.5104208e-06
232	0xb4f7335e	-4.604471e-07
233	0x32e9a4ba	2.7199679e-08
234	0xb4a5a11d	-3.085087e-07
235	0xb5cff7d3	-1.5494828e-06
236	0xb1ec3e85	-6.8756116e-09
237	0xb5ba931e	-1.3900897e-06
238	0xb78ed7cf	-1.7028213e-05
239	0xb5b487dd	-1.3450586e-06
240	0xb5425ca1	-7.2405425e-07
241	0xb7c476ec	-2.3420398e-05
242	0xb418d732	-1.4234391e-07
243	0xb5f31e44	-1.8113719e-06
244	0xb3919ca1	-6.780579e-08
245	0x367d8ad7	3.7780753e-06
246	0xb5bbd655	-1.3994965e-06
247	0xb546c9b0	-7.405424e-07
248	0xb584d8dd	-9.897882e-07
249	0xb727393d	-9.9673025e-06
250	0xb57b9698	-9.372393e-07
251	0x32d97545	2.5315453e-08
252	0xb6795110	-3.7151076e-06
253	0xb322e5f9	-3.7927723e-08
254	0xb46f725c	-2.2300213e-07
255	0xb305c0fd	-3.1141997e-08

lstm_layers.0.weight_hh_l0 f4 [512, 128]
0	0xb3d7d1d5	-1.0049886e-07
1	0xb4183300	-1.4174657e-07
2	0xb5b03570	-1.3128574e-06
3	0xb4b7035f	-3.408886e-07
4	0x33f48336	1.13860025e-07
5	0x34775bf6	2.3037123e-07
6	0x31c24fb9	5.6552065e-09
7	0x3400945d	1.1974903e-07
8	0xb11a365b	-2.2440847e-09
9	0x312b7e32	2.4955509e-09
10	0xb2c0847c	-2.2411989e-08
11	0xb43dbea6	-1.7671354e-07
12	0xb411f8b7	-1.3594659e-07
13	0xb4558c7d	-1.988828e-07
14	0xb5a90be4	-1.2594942e-06
15	0xb3c1d509	-9.026014e-08
16	0x33eeeb16	1.11255005e-07
17	0x33978d2d	7.057165e-08
18	0x338f0f7a	6.6617716e-08
19	0xb24fea13	-1.2102208e-08
20	0xb3d68b51	-9.990493e-08
21	0xb516d3ac	-5.618738e-07
22	0x3423b5c5	1.5246685e-07
23	0x33f50433	1.14094654e-07
24	0x34b001bf	3.2783825e-07
25	0xb30c3fc8	-3.26543e-08
26	0xb420c49f	-1.4972692e-07
27	0xb298ce80	-1.7789034e-08
28	0x3215a0c8	8.709499e-09
29	0xb3eb9da8	-1.0971718e-07
30	0xb4c77354	-3.715055e-07
31	0x2e9776ff	6.887823e-11
32	0x328bd96e	1.6280605e-08
33	0x32fa06f3	2.910699e-08
34	0x34ac89b5	3.2137692e-07
35	0x34337b4d	1.671553e-07
36	0xb513cb65	-5.5057745e-07
37	0x340c84b0	1.3086787e-07
38	0x33805e75	5.977646e-08
39	0x328f070e	1.66506e-08
40	0xb317ef68	-3.5375166e-08
41	0x3508e275	5.0993486e-07
42	0xb31678a6	-3.5034326e-08
43	0xb321d795	-3.7681804e-08
44	0xb425b698	-1.543325e-07
45	0xb3532d5f	-4.916853e-08
46	0xb39817be	-7.08237e-08
47	0xb2bf8988	-2.2297868e-08
48	0xb38e7ba6	-6.634882e-08
49	0xb44098af	-1.793694e-07
50	0x333fe525	4.467906e-08
51	0x316a6d8b	3.411375e-09
52	0x3504385c	4.9255846e-07
53	0x32b7b2d0	2.1385318e-08
54	0x342b13dc	1.5932841e-07
55	0xb36ecf48	-5.5602214e-08
56	0xb5272497	-6.2265593e-07
57	0x33818a2e	6.032165e-08
58	0xb3464be7	-4.61695e-08
59	0x3232ecae	1.0414778e-08
60	0xb489a7ed	-2.564042e-07
61	0xb3051d2d	-3.099301e-08
62	0xb499e52a	-2.866521e-07
63	0x32e5567a	2.6698434e-08
64	0x3239b8a9	1.0810404e-08
65	0xb4492fa2	-1.8736912e-07
66	0x3354dcd1	4.9560928e-08
67	0xb2e7ca5e	-2.6983965e-08
68	0xb3f6df10	-1.14958425e-07
69	0xb3d4df3b	-9.912625e-08
70	0xb4766d1f	-2.2950233e-07
71	0x31291580	2.4604958e-09
72	0x349d9e9c	2.9358932e-07
73	0xb47fd656	-2.38267e-07
74	0x32305d14	1.0265712e-08
75	0xb38993cf	-6.406446e-08
76	0x33174048	3.521589e-08
77	0xb42b3af8	-1.5947069e-07
78	0xb2d7dae1	-2.5128829e-08
79	0x33a28594	7.5680106e-08
80	0xb3a2a7a3	-7.574206e-08
81	0xb393da46	-6.8849246e-08
82	0x34946929	2.7643662e-07
83	0xb423aaee	-1.5242742e-07
84	0xb1937da9	-4.292549e-09
85	0x333390ce	4.1808384e-08
86	0x344e2939	1.9200242e-07
87	0x317f765d	3.7174666e-09
88	0x332636b0	3.8699625e-08
89	0x348c3911	2.6118553e-07
90	0xb1ae2ad5	-5.068936e-09
91	0x34044f54	1.2322317e-07
92	0xb3d7714d	-1.0032327e-07
93	0xb3ae004e	-8.102562e-08
94	0x33afad50	8.180598e-08
95	0xb354391e	-4.9412044e-08
96	0xb39e517a	-7.372269e-08
97	0xb437c71b	-1.7115637e-07
98	0xb38622e3	-6.246207e-08
99	0x339ae84f	7.2134405e-08
100	0x31a2e206	4.7405164e-09
101	0x332db770	4.0446537e-08
102	0xb1e18f71	-6.5646693e-09
103	0xb3efc747	-1.1165553e-07
104	0x33fe74aa	1.1849018e-07
105	0xb2cdde56	-2.3966248e-08
106	0xb47a9ad3	-2.3339389e-07
107	0x3435b991	1.6924447e-07
108	0xb1a68f7f	-4.8475495e-09
109	0x33e2e9b9	1.0566459e-07
110	0x34c4d495	3.666252e-07
111	0xb2335f33	-1.0440817e-08
112	0x3199ace1	4.47254e-09
113	0x34b85df8	3.4341042e-07
114	0xb36c1413	-5.496629e-08
115	0xb4c048cf	-3.5815762e-07
116	0x329aac2d	1.8006256e-08
117	0x33c1a5c8	9.017418e-08
118	0x330c49db	3.266346e-08
119	0xb306ec1e	-3.1414054e-08
120	0xb296e597	-1.7566704e-08
121	0x31911137	4.2220125e-09
122	0x34e6ac1e	4.296607e-07
123	0xb100eb91	-1.8760355e-09
124	0xb3f7e26c	-1.154302e-07
125	0x33d74dbf	1.00258596e-07
126	0xb15c0609	-3.2017644e-09
127	0x32130f53	8.5600105e-09
128	0x347d34cb	2.3581667e-07
129	0x34cd14b5	3.8199292e-07
130	0x34ed985b	4.4255543e-07
131	0xb4069179	-1.2532645e-07
132	0xb38037a5	-5.970586e-08
133	0xb3a9f47c	-7.914147e-08
134	0x351b5946	5.787191e-07
135	0x33e8d08b	1.08412756e-07
136	0x30a6bce1	1.2131772e-09
137	0x31dd8b3d	6.447776e-09
138	0x346ac981	2.1866255e-07
139	0x34376e81	1.7083404e-07
140	0xb4ead725	-4.3742435e-07
141	0xb43934a8	-1.7248624e-07
142	0x34b846b2	3.4324108e-07
143	0xb4095b0f	-1.2792246e-07
144	0xb49f8118	-2.9709986e-07
145	0xb34d0d0b	-4.7742144e-08
146	0x341055a2	1.3442198e-07
147	0x32ac88c9	2.0085638e-08
148	0x31fe4b53	7.4009363e-09
149	0x360ebc05	2.126909e-06
150	0x338fa7f4	6.689507e-08
151	0xb36f46d5	-5.5710945e-08
152	0x34c4f949	3.6689224e-07
153	0xb34856e6	-4.6645162e-08
154	0xb491974e	-2.7118443e-07
155	0x334725ac	4.636756e-08
156	0xb35930fe	-5.0568808e-08
157	0xb38e5c36	-6.629163e-08
158	0x341d024b	1.4622599e-07
159	0x33f6791a	1.1477296e-07
160	0x31a7f846	4.888565e-09
161	0x34081d1b	1.2676576e-07
162	0xb3fd09fa	-1.1783045e-07
163	0xb3678f5b	-5.391426e-08
164	0x342024bb	1.4914524e-07
165	0x34875b2a	2.521204e-07
166	0xb3e0bc33	-1.0465046e-07
167	0xb3b2ead8	-8.331489e-08
168	0xb3dc8834	-1.02693235e-07
169	0xb2da5f46	-2.5421866e-08
170	0xb328eba3	-3.932986e-08
171	0x34232d70	1.5197088e-07
172	0xb2c6b2b0	-2.3131491e-08
173	0xb5166fdd	-5.6042137e-07
174	0xb41fab77	-1.4870407e-07
175	0x3401da39	1.209345e-07
176	0xb37be609	-5.8649707e-08
177	0x34faff3f	4.6751845e-07
178	0x341512e3	1.3883577e-07
179	0xb2bf67c9	-2.2282522e-08
180	0xb47df9c8	-2.3653331e-07
181	0x34afc8e1	3.274245e-07
182	0x32893c60	1.5976354e-08
183	0x344beb2c	1.8991403e-07
184	0xb36343db	-5.291427e-08
185	0xb41ed567	-1.4792532e-07
186	0xb3c0e65b	-8.982598e-08
187	0x30741e77	8.8809976e-10
188	0x34efa647	4.4638202e-07
189	0xb37649db	-5.734351e-08
190	0x3409fbcb	1.2850721e-07
191	0x31ff7a7c	7.4354016e-09
192	0xb3e1c9f1	-1.0514112e-07
193	0x33b3275d	8.342497e-08
194	0xb2a9f8a1	-1.9787253e-08
195	0xb3b56d32	-8.448332e-08
196	0xb41c4915	-1.4555219e-07
197	0x33649735	5.322291e-08
198	0xb4a8c3be	-3.143486e-07
199	0xb330021d	-4.0980115e-08
200	0x338b704c	6.4931186e-08
201	0x34a7ceff	3.1256783e-07
202	0x3226c694	9.707623e-09
203	0x33f95e05	1.1612068e-07
204	0x34c23aa0	3.617797e-07
205	0xb284af21	-1.5446462e-08
206	0xb30dcf84	-3.3017855e-08
207	0xb4054e52	-1.2415083e-07
208	0xb28035fd	-1.4925712e-08
209	0x3303987b	3.0639494e-08
210	0xb4f78cc4	-4.6109756e-07
211	0xb4d04eb6	-3.880029e-07
212	0x3263afa8	1.3253079e-08
213	0xb33f72c1	-4.457502e-08
214	0xb3612ba0	-5.242657e-08
215	0x320d6ee8	8.232497e-09
216	0xb3027ef8	-3.038346e-08
217	0xb3f442bc	-1.1374274e-07
218	0x323bf470	1.0940411e-08
219	0xb3a398f1	-7.618099e-08
220	0x32f14fc0	2.8092359e-08
221	0x330cff96	3.2828744e-08
222	0x32d5eed9	2.4905079e-08
223	0xb2a5a4b1	-1.9283421e-08
224	0x33221113	3.7734093e-08
225	0xb453a7c7	-1.9711943e-07
226	0xb3c0e3dd	-8.982145e-08
227	0x34c2259b	3.6162677e-07
228	0x3495c62a	2.7897596e-07
229	0xb3598886	-5.0648417e-08
230	0x338dc2cb	6.601257e-08
231	0xb3b8f6c4	-8.613054e-08
232	0xb45909bb	-2.021324e-07
233	0x32320750	1.0362626e-08
234	0xb3da1b85	-1.0156422e-07
235	0x3496cf35	2.809044e-07
236	0x325b8787	1.2778293e-08
237	0x34e5c904	4.2800832e-07
238	0x341215c0	1.3605222e-07
239	0xb2f1ef9b	-2.8165053e-08
240	0x330c2e3a	3.2638333e-08
241	0xb47a5ec0	-2.3317534e-07
242	0xb3c4524f	-9.141933e-08
243	0x33a66c18	7.7496395e-08
244	0x318ae4a9	4.0423243e-09
245	0x3438d728	1.7214609e-07
246	0xb2e14f09	-2.6229388e-08
247	0x32a5b9d7	1.9293038e-08
248	0xb356597b	-4.990714e-08
249	0xb4955eb6	-2.7822324e-07
250	0x337c3d48	5.8729057e-08
251	0xb38bb548	-6.505667e-08
252	0xb3b150bf	-8.2568924e-08
253	0xb2061bae	-7.80612e-09
254	0xb3680694	-5.4022692e-08
255	0xb22842c5	-9.794069e-09

lstm_layers.0.bias_ih_l0 f4 [512]
0	0xb5644632	-8.5038766e-07
1	0xb688cbae	-4.0768273e-06
2	0x3700afca	7.670324e-06
3	0x368f6f3a	4.2746806e-06
4	0xb5dc9714	-1.6435247e-06
5	0xb6f4426e	-7.2795e-06
6	0xb30a115d	-3.214642e-08
7	0xb7a3dd6d	-1.9534224e-05
8	0xb3798b43	-5.8101488e-08
9	0xb386e089	-6.280704e-08
10	0xb4646269	-2.1269956e-07
11	0xb78b1c2f	-1.6583215e-05
12	0xb66c0c31	-3.5173837e-06
13	0xb813d150	-3.524247e-05
14	0xb726c76c	-9.940803e-06
15	0xb44f5916	-1.9310787e-07
16	0xb673dffa	-3.6340193e-06
17	0xb5b0cd50	-1.3172776e-06
18	0xb5c9cb76	-1.5034882e-06
19	0xb417632a	-1.4099047e-07
20	0xb72537e0	-9.847776e-06
21	0x3682ef68	3.9021725e-06
22	0xb7387f4f	-1.0996896e-05
23	0xb653d159	-3.1563306e-06
24	0xb70d58c0	-8.424919e-06
25	0xb1be7ec0	-5.5441376e-09
26	0x36354821	2.7013086e-06
27	0xb3834326	-6.112377e-08
28	0xb4a7c480	-3.1249147e-07
29	0xb6f93aca	-7.427622e-06
30	0x37506758	1.2421828e-05
31	0x385b7783	5.2324973e-05
32	0xb47ae4ab	-2.3366253e-07
33	0xb5a8813c	-1.2554588e-06
34	0xb734adef	-1.0769333e-05
35	0xb5407992	-7.170248e-07
36	0xb8c60ec0	-9.444123e-05
37	0xb81d34c9	-3.7480877e-05
38	0xb65667e1	-3.194895e-06
39	0x3410f072	1.3498519e-07
40	0xb6c8bb75	-5.9822873e-06
41	0x38a59435	7.895419e-05
42	0xb6078631	-2.0194677e-06
43	0xb5021a5a	-4.846712e-07
44	0x3630689a	2.628693e-06
45	0x33499d79	4.694218e-08
46	0xb5012d39	-4.812205e-07
47	0xb6d1406a	-6.236184e-06
48	0xb6910296	-4.321638e-06
49	0x37b6c414	2.1787397e-05
50	0xb491298b	-2.703858e-07
51	0x3434ff95	1.6856787e-07
52	0xb89f27ef	-7.589149e-05
53	0xb6ef877c	-7.1385275e-06
54	0x3564426b	8.503327e-07
55	0x340229aa	1.2122351e-07
56	0xb6bc731f	-5.6162385e-06
57	0xb6b0b540	-5.266309e-06
58	0x34e9f4c6	4.3577728e-07
59	0x334e55fc	4.8041315e-08
60	0x36f5a706	7.321013e-06
61	0xb62bf7d8	-2.562525e-06
62	0xb796fc67	-1.7998927e-05
63	0xb341c86c	-4.5118597e-08
64	0x31c9385d	5.8562777e-09
65	0x36c4c091	5.863673e-06
66	0x349df6d4	2.942312e-07
67	0xb74e541f	-1.2298143e-05
68	0xb5b6d00f	-1.362061e-06
69	0xb67284ef	-3.6138188e-06
70	0xb783b32a	-1.5699847e-05
71	0xb5aea4d6	-1.3011984e-06
72	0xb243c8eb	-1.1396177e-08
73	0xb69980b9	-4.5747406e-06
74	0xb48c8e15	-2.618041e-07
75	0x367f37fe	3.8030553e-06
76	0xb74f79ab	-1.23664895e-05
77	0xb5eec63e	-1.7790078e-06
78	0x36282361	2.5054544e-06
79	0xb4b7455b	-3.413687e-07
80	0xb619a959	-2.289735e-06
81	0xb4b45aca	-3.359367e-07
82	0x37194374	9.135216e-06
83	0xb718d723	-9.109996e-06
84	0xb3657380	-5.3423264e-08
85	0x341936ea	1.4269213e-07
86	0x367bcc22	3.7520736e-06
87	0xb36567a4	-5.3412478e-08
88	0xb58a4eac	-1.0304698e-06
89	0xb7162071	-8.94825e-06
90	0x3367613e	5.387232e-08
91	0xb5adf394	-1.2960395e-06
92	0xb5828d7c	-9.726932e-07
93	0xb5101c72	-5.3685574e-07
94	0xb64d8cf8	-3.0629435e-06
95	0xb469bf6f	-2.1769459e-07
96	0xb58897e1	-1.0176992e-06
97	0xb6d0d3ae	-6.223526e-06
98	0x35f31e3e	1.8113712e-06
99	0xb657b3f5	-3.2142245e-06
100	0xb8062dc8	-3.1990727e-05
101	0xb4d140b4	-3.897636e-07
102	0xb50def6d	-5.2875004e-07
103	0xb60bdbc1	-2.0840528e-06
104	0xb52e2a2b	-6.4881414e-07
105	0x323d55d2	1.1020761e-08
106	0xb4c4e11e	-3.667164e-07
107	0xb6f993aa	-7.4379686e-06
108	0xb2a01ebd	-1.864043e-08
109	0xb6ad54fc	-5.1656953e-06
110	0x377da148	1.5117526e-05
111	0xb57a8877	-9.333084e-07
112	0xb5f0bb01	-1.7935819e-06
113	0xb89a7560	-7.365155e-05
114	0xb5518fc0	-7.806775e-07
115	0xb6bddbe6	-5.6582385e-06
116	0xb48dce80	-2.6413545e-07
117	0xb5c83f57	-1.4919596e-06
118	0xb5923700	-1.0893855e-06
119	0x398daf92	0.00027024426
120	0xb5d7f1f9	-1.6089172e-06
121	0xb53e92b1	-7.099398e-07
122	0xb5dc4d15	-1.6413711e-06
123	0xb1d8783e	-6.3000973e-09
124	0xb70e11b7	-8.467984e-06
125	0xb418fcc4	-1.4248059e-07
126	0xb434eb0f	-1.684932e-07
127	0xb302d76e	-3.0463916e-08
128	0xb6c04ad9	-5.7307593e-06
129	0xb68ab3dd	-4.1336593e-06
130	0xb5a395bb	-1.2188024e-06
131	0x363dd3e7	2.8286538e-06
132	0xb5b592ef	-1.3528314e-06
133	0xb659e7de	-3.2470484e-06
134	0xb4079f71	-1.2630859e-07
135	0xb7a4f6e6	-1.9665295e-05
136	0xb52ec579	-6.510741e-07
137	0xb423cd35	-1.5255212e-07
138	0xb4661418	-2.1427729e-07
139	0xb78f86d1	-1.7109707e-05
140	0xb64adcc5	-3.022885e-06
141	0xb924d09b	-0.0001571797
142	0xb735d5dc	-1.0838234e-05
143	0xb3c4612b	-9.144636e-08
144	0xb66be850	-3.5152952e-06
145	0xb5f0a60c	-1.792972e-06
146	0xb620a33a	-2.3936868e-06
147	0xb3f66a3f	-1.1474594e-07
148	0xb73c1ca5	-1.12123425e-05
149	0xb583dc99	-9.824463e-07
150	0xb72ab239	-1.0174285e-05
151	0xb614ac4d	-2.215401e-06
152	0xb6d92c95	-6.472294e-06
153	0x355dbe88	8.2606175e-07
154	0x36d4a969	6.3378143e-06
155	0x3254a22c	1.2376898e-08
156	0xb4aab118	-3.179382e-07
157	0xb6fa369d	-7.4569384e-06
158	0xb4f02535	-4.4730555e-07
159	0x3857eaf9	5.147883e-05
160	0xb24cdb72	-1.1924259e-08
161	0xb5a11d02	-1.2003877e-06
162	0xb78dabf5	-1.6888584e-05
163	0xb674275d	-3.6381746e-06
164	0x386101ec	5.364597e-05
165	0xb8039e78	-3.138042e-05
166	0xb6092ab3	-2.0439445e-06
167	0x345a3275	2.0321188e-07
168	0xb6aa6487	-5.0780977e-06
169	0x38a83eb8	8.0225465e-05
170	0xb5ca6f45	-1.5082557e-06
171	0xb4dab46d	-4.073694e-07
172	0x34f9e3fc	4.6545745e-07
173	0xb4824ac4	-2.4268786e-07
174	0xb53f5aae	-7.1285e-07
175	0xb69edab8	-4.734229e-06
176	0xb63e01a5	-2.8313164e-06
177	0x391357cc	0.0001405172
178	0x33efb591	1.11623315e-07
179	0x34d62369	3.988637e-07
180	0xb7dd72c5	-2.6398697e-05
181	0xb7080409	-8.107171e-06
182	0xb47c9666	-2.3524044e-07
183	0xb423f24e	-1.5268708e-07
184	0xb6b98e47	-5.529993e-06
185	0xb667e8e7	-3.455725e-06
186	0x36e56d59	6.8374616e-06
187	0x33bae504	8.7029576e-08
188	0x385e2557	5.29637e-05
189	0x34d331a6	3.9337937e-07
190	0xb6b2745c	-5.3183594e-06
191	0xb374c738	-5.6991865e-08
192	0xb22afa89	-9.9522675e-09
193	0x36c78cbd	5.9470462e-06
194	0xb4b07638	-3.286857e-07
195	0xb6cabe94	-6.0422553e-06
196	0xb5819cf2	-9.656926e-07
197	0xb6317403	-2.6442583e-06
198	0xb782cb59	-1.5591899e-05
199	0xb578fa02	-9.275101e-07
200	0xb51149d8	-5.4124166e-07
201	0xb6b278b5	-5.3188655e-06
202	0xb3fa618f	-1.1659278e-07
203	0x3453fc8e	1.9742785e-07
204	0xb74b56ff	-1.2119998e-05
205	0xb61e8b45	-2.36249e-06
206	0x364390bc	2.914151e-06
207	0xb51fdadf	-5.9550615e-07
208	0xb5fb718a	-1.8734002e-06
209	0xb4807618	-2.3927782e-07
210	0x3750fdc4	1.24568505e-05
211	0xb7554b43	-1.2713313e-05
212	0xb3659b2a	-5.345934e-08
213	0x335926ab	5.0559418e-08
214	0x36802589	3.819067e-06
215	0xb3a89c7c	-7.851574e-08
216	0xb586eb22	-1.0052211e-06
217	0xb70f3e46	-8.537963e-06
218	0xb2e65934	-2.6816089e-08
219	0xb5a1295d	-1.2007473e-06
220	0xb50862cd	-5.080772e-07
221	0xb75c1321	-1.3117476e-05
222	0xb63cae9d	-2.8115821e-06
223	0xb4f0a234	-4.4821502e-07
224	0x373b8c3c	1.1178719e-05
225	0xb61ba48c	-2.3192579e-06
226	0x3610c31d	2.1571243e-06
227	0xb58adcff	-1.034612e-06
228	0xb7791f50	-1.4848847e-05
229	0xb5055cf2	-4.9681614e-07
230	0xb580e8d4	-9.604505e-07
231	0xb6a87b50	-5.0211456e-06
232	0xb4ad1053	-3.2235639e-07
233	0x326a1c55	1.3627035e-08
234	0xb54ddd5d	-7.6690577e-07
235	0xb6a115ac	-4.800697e-06
236	0x2ffebb8e	4.6335596e-10
237	0xb6a631fa	-4.9530036e-06
238	0x39fb22c0	0.0004790034
239	0xb5da655d	-1.6271766e-06
240	0xb5ccb17f	-1.5250843e-06
241	0xb86c95a0	-5.6406134e-05
242	0xb512f54a	-5.474618e-07
243	0xb63f0457	-2.8463744e-06
244	0xb4e0b215	-4.1852823e-07
245	0xb633a91f	-2.677152e-06
246	0x35cd45a4	1.5293958e-06
247	0xb7178f95	-9.033732e-06
248	0xb5e5016e	-1.7062246e-06
249	0xb70951f4	-8.1849175e-06
250	0x35d6335f	1.5959193e-06
251	0xb2b61adc	-2.1199803e-08
252	0xb7020971	-7.750802e-06
253	0xb2f0fd15	-2.8054766e-08
254	0x34f774ee	4.6092413e-07
255	0x31f08dae	7.0010264e-09

lstm_layers.0.bias_hh_l0 f4 [512]
0	0xb63be542	-2.7998617e-06
1	0xb68ca59e	-4.1916055e-06
2	0x37047778	7.895629e-06
3	0x369f6619	4.750455e-06
4	0xb5cd0f16	-1.5278081e-06
5	0xb5a74009	-1.2461106e-06
6	0xb3d54d11	-9.932604e-08
7	0xb7a72b2a	-1.9928051e-05
8	0xb4c5b39c	-3.6824792e-07
9	0xb456567d	-1.9961767e-07
10	0xb3f60802	-1.1456724e-07
11	0x38e10ca8	0.000107311935
12	0xb6811187	-3.84654e-06
13	0xb899abf6	-7.327639e-05
14	0xb739dab0	-1.1077776e-05
15	0xb4e4f0ff	-4.2643657e-07
16	0xb6c09938	-5.739883e-06
17	0xb5cc0248	-1.5199848e-06
18	0xb5af9e0c	-1.3084514e-06
19	0xb291eab4	-1.6986952e-08
20	0xb739981b	-1.1062274e-05
21	0xb5a73927	-1.2459103e-06
22	0xb72a57ad	-1.0153203e-05
23	0xb59e6840	-1.1802258e-06
24	0xb6426096	-2.8964473e-06
25	0xb48e3110	-2.648526e-07
26	0x379c7a4d	1.86536e-05
27	0x330fa9bb	3.344915e-08
28	0xb4bceebd	-3.5191434e-07
29	0xb7127753	-8.7300605e-06
30	0x374d48e6	1.2235925e-05
31	0x36162d9f	2.2378297e-06
32	0xb42be3a7	-1.6008435e-07
33	0xb5b863d6	-1.3738124e-06
34	0xb7231981	-9.721495e-06
35	0xb539010f	-6.891941e-07
36	0x384ff209	4.957806e-05
37	0xb7eac119	-2.7984892e-05
38	0xb6233b5c	-2.4323444e-06
39	0xb36271ef	-5.2723347e-08
40	0xb70a8c94	-8.258172e-06
41	0x38a70a82	7.965138e-05
42	0xb605f227	-1.9959496e-06
43	0xb505545b	-4.9669114e-07
44	0x35991f56	1.1408508e-06
45	0x3488a258	2.5450095e-07
46	0xb4fceca1	-4.7110828e-07
47	0xb654715d	-3.1656448e-06
48	0xb617ed16	-2.2638756e-06
49	0x37b4d734	2.1557884e-05
50	0xb46e3bc2	-2.2187217e-07
51	0x33a5f765	7.728412e-08
52	0xb7cdca86	-2.4532212e-05
53	0xb6a8d9af	-5.032132e-06
54	0xb43bf9e8	-1.7506648e-07
55	0xb569d78b	-8.711292e-07
56	0xb6b84c0b	-5.49248e-06
57	0xb6a7e89e	-5.004068e-06
58	0x36edbcf7	7.085149e-06
59	0x32741f3c	1.4209771e-08
60	0xb7efc23e	-2.8581471e-05
61	0x360552d6	1.9866761e-06
62	0xb6759ffe	-3.6600973e-06
63	0xb28655c9	-1.5638664e-08
64	0x32a95fcf	1.9717758e-08
65	0x36b6fe8c	5.453656e-06
66	0xb531093f	-6.5951093e-07
67	0xb474f659	-2.2813892e-07
68	0xb5805f66	-9.564508e-07
69	0xb5a3144e	-1.2150356e-06
70	0xb7856b3f	-1.5904776e-05
71	0xb2b337ca	-2.0863713e-08
72	0xb594d054	-1.1087491e-06
73	0xb6a1c885	-4.8215175e-06
74	0xb378c32d	-5.791951e-08
75	0x36393473	2.7597678e-06
76	0xb73b0e84	-1.1149448e-05
77	0xb615b415	-2.2307552e-06
78	0x36307c34	2.629834e-06
79	0x323a3578	1.0838782e-08
80	0xb5375465	-6.829562e-07
81	0xb5a8fae1	-1.2589991e-06
82	0x381af227	3.6941983e-05
83	0xb74f3ef7	-1.2352822e-05
84	0x342a4714	1.5858342e-07
85	0x33883473	6.342534e-08
86	0x3614128d	2.2064517e-06
87	0xb390e8c5	-6.747863e-08
88	0xb46fec7c	-2.2344642e-07
89	0xb740b804	-1.1486936e-05
90	0x3091903c	1.0591132e-09
91	0xb5f14652	-1.7976365e-06
92	0xb4a6eb09	-3.109092e-07
93	0xb760b3e1	-1.3393322e-05
94	0xb645eaa9	-2.9491878e-06
95	0xb4e8aa18	-4.3337127e-07
96	0xb69b0497	-4.6198943e-06
97	0xb6cbb80b	-6.071297e-06
98	0x3594030d	1.1027747e-06
99	0xb66e2504	-3.548631e-06
100	0xb7536f83	-1.2602543e-05
101	0xb44e88d1	-1.9235019e-07
102	0xb5c5eb57	-1.4746137e-06
103	0xb6c4cd64	-5.865166e-06
104	0xb524562c	-6.122016e-07
105	0xb10dffae	-2.0663538e-09
106	0xb531c29e	-6.6220844e-07
107	0xb671832e	-3.5988155e-06
108	0x341caa3e	1.4590566e-07
109	0xb610b5e6	-2.156355e-06
110	0xb8939465	-7.037147e-05
111	0xb603e175	-1.9651754e-06
112	0xb5e14f0d	-1.6786813e-06
113	0xb87271f1	-5.7803412e-05
114	0xb3a6635f	-7.748053e-08
115	0x35cd3fef	1.5292297e-06
116	0xb40dac72	-1.3194384e-07
117	0xb6d023dc	-6.2030576e-06
118	0xb60134a5	-1.925314e-06
119	0xb5d4fe96	-1.5869325e-06
120	0xb5d63c6a	-1.5961825e-06
121	0xb536d88d	-6.8115406e-07
122	0xb6065782	-2.0018492e-06
123	0x33853d72	6.204472e-08
124	0xb6ed61ae	-7.074522e-06
125	0xb3f6b22b	-1.1487676e-07
126	0xb4ed3f64	-4.4190813e-07
127	0x3250879a	1.2138026e-08
128	0xb6bffd98	-5.721766e-06
129	0xb62bf94a	-2.562609e-06
130	0x3734cb85	1.0776222e-05
131	0x365f47e8	3.3271444e-06
132	0xb5898934	-1.0247227e-06
133	0xb65db954	-3.3039441e-06
134	0xb21caf7a	-9.120294e-09
135	0xb765ad19	-1.3689766e-05
136	0x34d278e3	3.9203505e-07
137	0xb1d06742	-6.065336e-09
138	0xb4e58276	-4.2749497e-07
139	0xb7b4b121	-2.1540154e-05
140	0xb65a4751	-3.2526043e-06
141	0xb898eb3b	-7.29174e-05
142	0xb7418038	-1.153355e-05
143	0xb577f62a	-9.2372886e-07
144	0xb6beafa3	-5.682888e-06
145	0xb5b646ed	-1.3580699e-06
146	0xb5bf64b9	-1.4259923e-06
147	0xb1dc77f5	-6.4164802e-09
148	0xb7424f24	-1.1581727e-05
149	0x37154591	8.897289e-06
150	0xb7a17ca0	-1.9250729e-05
151	0xb65a950e	-3.2571293e-06
152	0xb6ca5b7c	-6.0307193e-06
153	0x33664821	5.361665e-08
154	0x371df088	9.413932e-06
155	0x33274405	3.894458e-08
156	0xb4b61d9f	-3.3921694e-07
157	0xb712a271	-8.7400995e-06
158	0x3705d80f	7.977723e-06
159	0x385bee28	5.243547e-05
160	0xb4904ad2	-2.687653e-07
161	0x3502ae55	4.868246e-07
162	0xb6f7e469	-7.387764e-06
163	0xb6645624	-3.4024788e-06
164	0x38270755	3.982273e-05
165	0xb83745e8	-4.3695705e-05
166	0xb65e9b7a	-3.3171077e-06
167	0x34618ea3	2.1006649e-07
168	0xb6b27d7d	-5.319422e-06
169	0x38b7059a	8.7271634e-05
170	0xb60738e8	-2.0149691e-06
171	0xb4c94ca4	-3.749493e-07
172	0xb3f8e25e	-1.1589576e-07
173	0xb516ab43	-5.6128573e-07
174	0xb5253541	-6.1544785e-07
175	0xb5fb2f99	-1.871481e-06
176	0xb69a8e43	-4.606119e-06
177	0x37be8b33	2.2714585e-05
178	0xb4920b66	-2.7202913e-07
179	0x3491885b	2.7107566e-07
180	0xb834e5bb	-4.3129297e-05
181	0xb5756237	-9.1412534e-07
182	0xb478f68b	-2.3186492e-07
183	0xb5356965	-6.7581124e-07
184	0xb6abeb46	-5.1235866e-06
185	0xb6b7897f	-5.4698316e-06
186	0x36c98ab5	6.0064144e-06
187	0xb4156118	-1.3912029e-07
188	0x34e23c04	4.2139447e-07
189	0xb54a8943	-7.5450606e-07
190	0x3800b1ac	3.0683048e-05
191	0xb35fcabc	-5.210562e-08
192	0x321b90f4	9.055146e-09
193	0x3513a9f9	5.500911e-07
194	0xb566430b	-8.577924e-07
195	0x36bb843c	5.5884284e-06
196	0xb5b34f54	-1.3359627e-06
197	0x3572c7ab	9.044258e-07
198	0xb7832e67	-1.5638025e-05
199	0x35a7605e	1.2470516e-06
200	0x3450a545	1.9431634e-07
201	0xb69bc3d9	-4.6421596e-06
202	0xb40634ea	-1.2498973e-07
203	0xb6038fc8	-1.9604213e-06
204	0xb7411de5	-1.1510657e-05
205	0xb6213a9b	-2.4024982e-06
206	0x3678dd21	3.7083594e-06
207	0xb5c459e1	-1.4629296e-06
208	0xb418f515	-1.4245263e-07
209	0xb591f43d	-1.0874425e-06
210	0x38681b71	5.5338667e-05
211	0xb72a8cd9	-1.0165583e-05
212	0xb48d7291	-2.6346655e-07
213	0x3286509a	1.5636306e-08
214	0x36062903	1.9991428e-06
215	0xb43d3349	-1.7620654e-07
216	0xb47c85cf	-2.3518008e-07
217	0xb6ac7060	-5.1390816e-06
218	0x328fd33a	1.6743446e-08
219	0xb58f1768	-1.0661142e-06
220	0xb5394afa	-6.9026976e-07
221	0xb74b39ac	-1.2113171e-05
222	0xb65d09e1	-3.2937317e-06
223	0xb4e33da4	-4.2326894e-07
224	0xb61a2964	-2.297188e-06
225	0xb6be496c	-5.6709887e-06
226	0x35b9c2a5	1.3840223e-06
227	0xb5d8aed5	-1.6144137e-06
228	0xb76afa4f	-1.4005766e-05
229	0xb5184d31	-5.673674e-07
230	0xb5670bca	-8.607136e-07
231	0xb61ba810	-2.3194625e-06
232	0xb410b4c2	-1.3476804e-07
233	0x331f8746	3.7143103e-08
234	0xb54cf953	-7.6358737e-07
235	0xb66da5ef	-3.5412338e-06
236	0x352b987c	6.392436e-07
237	0xb4d847f1	-4.028548e-07
238	0xb71dd677	-9.407863e-06
239	0xb5d518ad	-1.5876918e-06
240	0xb5978483	-1.1288943e-06
241	0xb862521e	-5.3959076e-05
242	0xb4acbf31	-3.2176607e-07
243	0x3737fd90	1.0966687e-05
244	0xb4d8453f	-4.0283518e-07
245	0xb69e7a0c	-4.722975e-06
246	0x349840c8	2.835934e-07
247	0xb626ca83	-2.4853805e-06
248	0xb5e52770	-1.7073307e-06
249	0xb4a89ea7	-3.1407873e-07
250	0xb5f421f0	-1.8189294e-06
251	0xb431a187	-1.6543173e-07
252	0xb71308bb	-8.7639155e-06
253	0xb465e57c	-2.1410773e-07
254	0xb3d72e05	-1.00200886e-07
255	0x32a2d1e6	1.8954733e-08

lstm_layers.1.weight_ih_l0 f4 [256, 128]
0	0x399aa25c	0.00029494136
1	0xb8325a8d	-4.252284e-05
2	0xb85099d1	-4.9734317e-05
3	0xb7ef589d	-2.8532284e-05
4	0xb7ada1e2	-2.069859e-05
5	0xb760e0bf	-1.3403768e-05
6	0xb5c987fe	-1.5015246e-06
7	0x380ecee8	3.4048135e-05
8	0x35983b05	1.134206e-06
9	0xb95017ea	-0.00019845334
10	0x3665c680	3.4239201e-06
11	0x3841cbe3	4.620467e-05
12	0x381198b7	3.471292e-05
13	0xb8bcf282	-9.009709e-05
14	0xb86e97c3	-5.688496e-05
15	0xb70fb404	-8.565377e-06
16	0x369f0b91	4.7399158e-06
17	0xb74ec217	-1.2323747e-05
18	0xb7ac660f	-2.0551523e-05
19	0x35b38938	1.3376475e-06
20	0xb7c1038d	-2.3009046e-05
21	0x38a8aa33	8.042566e-05
22	0x38146066	3.5375728e-05
23	0x38691574	5.557151e-05
24	0x3822463c	3.868922e-05
25	0xb3954f3e	-6.952767e-08
26	0xb894d842	-7.097471e-05
27	0xb5fe1960	-1.893186e-06
28	0x3710e1a9	8.635609e-06
29	0xb7aad5c8	-2.0365129e-05
30	0xb99e6ed4	-0.00030218682
31	0x38786209	5.921911e-05
32	0x3642babc	2.9016946e-06
33	0x37756ea0	1.4628895e-05
34	0x37526f33	1.2542866e-05
35	0xb7a82bbe	-2.004753e-05
36	0x3885d34f	6.3812935e-05
37	0x3873960a	5.807545e-05
38	0x36e30a71	6.7663427e-06
39	0xb684e5de	-3.9606666e-06
40	0xb80fc966	-3.4281424e-05
41	0xb86da0a6	-5.665482e-05
42	0xb7b3341d	-2.136273e-05
43	0x374c99b5	1.2195135e-05
44	0x39796985	0.000237858
45	0x37533804	1.2589622e-05
46	0xb6c20e4c	-5.783315e-06
47	0x3959f711	0.00020786772
48	0xb7a30e30	-1.943772e-05
49	0x38b0ae7a	8.424833e-05
50	0xb738f9b6	-1.1025395e-05
51	0xb6b96d25	-5.5261357e-06
52	0xb8fa4e9e	-0.000119355725
53	0x38161b69	3.5788315e-05
54	0x35cb8783	1.5164118e-06
55	0x371d6c38	9.383126e-06
56	0xb7d7e376	-2.5735917e-05
57	0xb6b0fb0b	-5.274434e-06
58	0xb870c4a4	-5.7403595e-05
59	0x3603411f	1.9558427e-06
60	0x37fe8375	3.0340374e-05
61	0x3705b0e9	7.968608e-06
62	0x38bb0914	8.918546e-05
63	0x34d0ba0f	3.8878395e-07
64	0x3696259e	4.4747276e-06
65	0x37e93711	2.7801407e-05
66	0x39bbb59e	0.00035802735
67	0xb7e66712	-2.7466132e-05
68	0x3737092a	1.0909784e-05
69	0x3827157d	3.9835915e-05
70	0x380cff8d	3.36166e-05
71	0xb77312f6	-1.4488343e-05
72	0x36dc5c8b	6.5672843e-06
73	0xb878957c	-5.9267026e-05
74	0x3563bd6d	8.483974e-07
75	0x38290c9c	4.0304483e-05
76	0x37a416bc	1.956091e-05
77	0xb70dfd0d	-8.463173e-06
78	0x380f2bb1	3.4134548e-05
79	0xb6917319	-4.334736e-06
80	0xb7ca6d4e	-2.4131175e-05
81	0x37707658	1.4332669e-05
82	0xb88d4e94	-6.73804e-05
83	0x397f4a5e	0.00024346399
84	0xb6693d88	-3.4755521e-06
85	0xb6ed8b11	-7.07934e-06
86	0xb7ea2065	-2.7910059e-05
87	0x35a36247	1.2173049e-06
88	0xb6f3f230	-7.2701587e-06
89	0xb936b7ca	-0.0001742534
90	0x33f3bab0	1.13495275e-07
91	0xb772a8f3	-1.4463661e-05
92	0x378f1e27	1.706097e-05
93	0x392eb038	0.0001665958
94	0xb74ceace	-1.2214017e-05
95	0xb6e64ce4	-6.8634854e-06
96	0x36931e59	4.3844743e-06
97	0x3782983a	1.5568094e-05
98	0x37917c84	1.734333e-05
99	0xb99dd494	-0.00030103757
100	0x383901fb	4.410928e-05
101	0xb7402eea	-1.1455015e-05
102	0xb7304f10	-1.0508826e-05
103	0xb7a6c086	-1.9878393e-05
104	0xb787af64	-1.6174927e-05
105	0x35be2682	1.416731e-06
106	0x36a39b0a	4.8758275e-06
107	0xb7f1eb1d	-2.8838922e-05
108	0x350095cc	4.79017e-07
109	0x37f433b8	2.911115e-05
110	0x37c50cd0	2.3490196e-05
111	0xb745def2	-1.17940235e-05
112	0x3943c56d	0.00018670196
113	0xb883b792	-6.2807594e-05
114	0xb6d28fb5	-6.2752174e-06
115	0xb718fb1a	-9.11837e-06
116	0xb67b9019	-3.748579e-06
117	0x37e731d5	2.756055e-05
118	0xb757aace	-1.2854767e-05
119	0x36d2bf11	6.2807308e-06
120	0xb71b7bbc	-9.267529e-06
121	0xb7b038f9	-2.1007365e-05
122	0x38046109	3.1561623e-05
123	0x36132ce4	2.1930837e-06
124	0xb7243dd2	-9.789555e-06
125	0xb6442f8e	-2.9233956e-06
126	0x36a6af3d	4.967586e-06
127	0xb4fa1060	-4.6578043e-07
128	0x357458c9	9.102628e-07
129	0xb598412f	-1.1343853e-06
130	0xb4aed871	-3.2567507e-07
131	0x34db0545	4.0795763e-07
132	0xb1b4ed0b	-5.265638e-09
133	0xb4397df0	-1.7275283e-07
134	0xb17ac6d1	-3.6492802e-09
135	0x34bef7ef	3.5570653e-07
136	0x32f6ebdf	2.8745431e-08
137	0xb550cfe8	-7.778858e-07
138	0x31f38276	7.0870625e-09
139	0x351b7389	5.7910125e-07
140	0x332ceeb2	4.0263963e-08
141	0x38f1080c	0.00011493274
142	0x392f4cf2	0.00016717965
143	0xb2ebb7f0	-2.7441246e-08
144	0x321cb33d	9.121149e-09
145	0x34ed53e8	4.420574e-07
146	0xb4f01e2a	-4.472543e-07
147	0xb2a73774	-1.9466576e-08
148	0xb184c17b	-3.863702e-09
149	0x3489f57b	2.569685e-07
150	0xb4d52d3a	-3.9707248e-07
151	0xb3e8da94	-1.0843101e-07
152	0x348b3cb1	2.5934926e-07
153	0x39ad9b23	0.00033112717
154	0xb3c81a7c	-9.318043e-08
155	0x343e74d8	1.7737636e-07
156	0xb25ce2c3	-1.2857245e-08
157	0xb2b13ab0	-2.06322e-08
158	0xb5483fc8	-7.459862e-07
159	0x37fb7e8c	2.998046e-05
160	0x385d0a7b	5.2700267e-05
161	0xb9954073	-0.00028467513
162	0x39273cee	0.00015949059
163	0xb38301b6	-6.100474e-08
164	0x350c9b62	5.2380176e-07
165	0x38937c41	7.03265e-05
166	0x391b4e73	0.00014811177
167	0xb6609173	-3.3463264e-06
168	0xb3ef204c	-1.11351795e-07
169	0xb925075c	-0.00015738368
170	0xb4b58383	-3.3809565e-07
171	0x3367f935	5.401053e-08
172	0x338cfb2a	6.5649445e-08
173	0x3540bb40	7.179806e-07
174	0x3983de11	0.0002515172
175	0x3401fcf7	1.2106089e-07
176	0xb9b7be71	-0.0003504637
177	0x3485ced3	2.4923665e-07
178	0x341ff1a7	1.4895942e-07
179	0xb3c7cb85	-9.3036796e-08
180	0xb3f85c35	-1.1565172e-07
181	0xb39a6c53	-7.190888e-08
182	0x33eea118	1.11120414e-07
183	0xb99d3533	-0.0002998501
184	0xb9a902dd	-0.00032236325
185	0xb3ea8422	-1.0920509e-07
186	0x3364084d	5.3092936e-08
187	0xb8c88e90	-9.5632975e-05
188	0x34b2c60e	3.3299187e-07
189	0xb5201d97	-5.9647704e-07
190	0x338e8134	6.635892e-08
191	0x31254797	2.4051354e-09
192	0x38e15e8b	0.00010746446
193	0x34aa7cb4	3.17557e-07
194	0xb2f5ff85	-2.863795e-08
195	0x3381c082	6.0420476e-08
196	0x3131f388	2.5895321e-09
197	0x32638d75	1.3245303e-08
198	0xb542141e	-7.2299906e-07
199	0xb4d25077	-3.9174094e-07
200	0x363a6ed6	2.7780675e-06
201	0x3945eb2c	0.00018874992
202	0x3120ca3a	2.3398017e-09
203	0x33de60cf	1.035529e-07
204	0xb7a573a0	-1.9723375e-05
205	0xb1ff1b82	-7.424604e-09
206	0xb87b4ae6	-5.9912818e-05
207	0xb313a8e7	-3.437972e-08
208	0xb376855e	-5.7397635e-08
209	0xb4ece72a	-4.412662e-07
210	0xb43c58f9	-1.7541232e-07
211	0x33764752	5.7341204e-08
212	0xb38ebbe9	-6.646571e-08
213	0x382c693a	4.1105995e-05
214	0x34c623f1	3.6906525e-07
215	0x328702ea	1.5717394e-08
216	0xb7516df6	-1.2482973e-05
217	0x33002ff0	2.984592e-08
218	0x39095705	0.00013097755
219	0x3979b73b	0.00023814749
220	0xb53b17d8	-6.9697626e-07
221	0xb420f4d0	-1.4990223e-07
222	0xb3947233	-6.91256e-08
223	0x3415a996	1.3938401e-07
224	0x321ed813	9.24594e-09
225	0xb466a609	-2.1480822e-07
226	0xb9069831	-0.00012835932
227	0x320f048a	8.324728e-09
228	0xb4ce153c	-3.838594e-07
229	0xb33e5656	-4.4316344e-08
230	0xb3099fa1	-3.204298e-08
231	0xb49b1dd0	-2.889269e-07
232	0xb44133ea	-1.7993412e-07
233	0xb5d8d102	-1.6154083e-06
234	0x336ccf70	5.5136695e-08
235	0xb98e52b1	-0.0002714596
236	0x30f6486a	1.7919437e-09
237	0x35546a69	7.9131e-07
238	0xb585e168	-9.974874e-07
239	0x353ed9f7	7.1097696e-07
240	0x32c2f6bc	2.2696774e-08
241	0x3570c02d	8.968662e-07
242	0xb2f6197c	-2.8649758e-08
243	0x2f8d41d4	2.5694524e-10
244	0xb2fccae6	-2.9428929e-08
245	0xb92d92be	-0.00016553231
246	0xb39a5c0f	-7.187929e-08
247	0xb9a35e8d	-0.00031160229
248	0xb3c16ab5	-9.006673e-08
249	0x336ba307	5.4863474e-08
250	0x33fad27d	1.167982e-07
251	0x32cfd42d	2.4194458e-08
252	0x345aa20e	2.0361787e-07
253	0xb9983f85	-0.00029039025
254	0x3287b0ed	1.5796525e-08
255	0xb8bb5fb4	-8.934681e-05

lstm_layers.1.weight_hh_l0 f4 [256, 64]
0	0x396f2b2c	0.00022808899
1	0xb4fe65ef	-4.7385353e-07
2	0x394d728d	0.00019592997
3	0xb84034f3	-4.582568e-05
4	0x37299a61	1.0109129e-05
5	0x38fda2fb	0.000120943376
6	0x3730984b	1.0525876e-05
7	0x3959d270	0.00020773127
8	0x3868accc	5.547404e-05
9	0x395740d1	0.00020528144
10	0x38bb32da	8.926327e-05
11	0xb8964d38	-7.1669405e-05
12	0x379c897e	1.8660674e-05
13	0xb81a38ac	-3.676924e-05
14	0xb83724d1	-4.3664888e-05
15	0xb97a7772	-0.00023886355
16	0x3829409e	4.035292e-05
17	0xb85ff9d0	-5.34e-05
18	0xb75330a2	-1.2587903e-05
19	0xb889882c	-6.558033e-05
20	0xb859de81	-5.1944055e-05
21	0xb785bfa1	-1.594407e-05
22	0xb5fe9670	-1.8968258e-06
23	0xb86c455b	-5.6331377e-05
24	0xb8337168	-4.2782543e-05
25	0x37d76014	2.5674737e-05
26	0x3834e35c	4.312709e-05
27	0x394e8f33	0.00019699037
28	0x37062bdf	7.997237e-06
29	0x384dc2bc	4.905717e-05
30	0x394cfafd	0.00019548456
31	0x395a9510	0.0002084563
32	0x38fbeb59	0.000120124496
33	0xb91aa5b6	-0.00014748317
34	0xb9905e95	-0.0002753629
35	0x3989e37a	0.0002630016
36	0xb9a733cf	-0.00031891323
37	0x361836a7	2.2681577e-06
38	0x37d9d807	2.5969011e-05
39	0x38d36515	0.00010080092
40	0xb899524b	-7.310937e-05
41	0x389da32d	7.516737e-05
42	0x38dafd68	0.00010442251
43	0xb8edb28f	-0.000113343
44	0x383a5524	4.442515e-05
45	0xb827a192	-3.9966377e-05
46	0x388dfcde	6.770504e-05
47	0x3906528c	0.00012809987
48	0x3926bd84	0.00015901594
49	0x34f28c13	4.517793e-07
50	0x3832e4b2	4.2651496e-05
51	0x3982a59b	0.00024918918
52	0x392a3476	0.00016232007
53	0x369f6225	4.749995e-06
54	0x36726a23	3.612259e-06
55	0xb8eb9778	-0.000112338865
56	0x3713eb19	8.816621e-06
57	0x371a7130	9.205469e-06
58	0x38a3be7d	7.807927e-05
59	0x38a936c2	8.0687474e-05
60	0xb8a829fe	-8.018686e-05
61	0xb710ed09	-8.638258e-06
62	0x37d76ebf	2.5681567e-05
63	0xb8e2fe6a	-0.00010823908
64	0x33f1b049	1.1254503e-07
65	0xb282c3a6	-1.5222962e-08
66	0x35824193	9.704839e-07
67	0x35285264	6.270477e-07
68	0xb5261caf	-6.188156e-07
69	0xb8ff3daf	-0.00012170837
70	0xb932edf9	-0.00017064055
71	0xb4a5e34a	-3.089902e-07
72	0x352c7684	6.4247456e-07
73	0x39054aac	0.00012711686
74	0x34ee18f9	4.4349125e-07
75	0xb3e1a580	-1.0507483e-07
76	0xb534fcf8	-6.7423343e-07
77	0x38c975be	9.606358e-05
78	0xb48c0b95	-2.608546e-07
79	0xb53a1f34	-6.9335806e-07
80	0xb8adb740	-8.283416e-05
81	0xb4ae70be	-3.2492056e-07
82	0x35695c0a	8.69332e-07
83	0xb4f1cba3	-4.5037913e-07
84	0x35019c6c	4.828387e-07
85	0x36e92548	6.948281e-06
86	0xb23575c5	-1.0562364e-08
87	0xb95bb3c1	-0.00020952431
88	0xb47ddd8f	-2.3643064e-07
89	0x34807a71	2.3930946e-07
90	0xb9c08beb	-0.0003672534
91	0xb4ee40a3	-4.4377984e-07
92	0x34647003	2.1274904e-07
93	0x327a4382	1.4567265e-08
94	0x353846a1	6.864812e-07
95	0xb4ced462	-3.852502e-07
96	0x394ddf63	0.00019633542
97	0xb4c41270	-3.652126e-07
98	0xb89ee757	-7.5771175e-05
99	0x332888f5	3.924011e-08
100	0xb56d6468	-8.843549e-07
101	0x37f19f78	2.8803697e-05
102	0x3301e372	3.0242013e-08
103	0x343c8783	1.7558163e-07
104	0x38ae5b7e	8.314008e-05
105	0x3403f141	1.2288093e-07
106	0x3338cfc2	4.3029793e-08
107	0xb4dedc3c	-4.1510964e-07
108	0x34923d85	2.723938e-07
109	0x35802239	9.546703e-07
110	0x3784a334	1.5811624e-05
111	0x35143d62	5.522362e-07
112	0xb50eec24	-5.324275e-07
113	0x328e717c	1.6582582e-08
114	0xb30c10cf	-3.2611577e-08
115	0x35814917	9.632521e-07
116	0xb7adbb0d	-2.071031e-05
117	0x36861c09	3.996775e-06
118	0x33aa80ed	7.939693e-08
119	0xb51041d9	-5.374e-07
120	0xb2529d4c	-1.2259374e-08
121	0xb373ba44	-5.6747254e-08
122	0x386672e6	5.494328e-05
123	0x33d93b86	1.0115677e-07
124	0xb5540d44	-7.899546e-07
125	0xb3930b60	-6.84729e-08
126	0x34326e93	1.6617768e-07
127	0xb532ba04	-6.6580856e-07
128	0x38452644	4.7004098e-05
129	0xb6d1c289	-6.2513323e-06
130	0x371d1340	9.362411e-06
131	0xb971c478	-0.00023056741
132	0xb9d18008	-0.00039958977
133	0x3763028c	1.3530847e-05
134	0xb987f5c8	-0.00025932328
135	0x383ffe10	4.5774563e-05
136	0xb911ab9b	-0.00013892206
137	0x3786c4b6	1.6065645e-05
138	0x391a8991	0.00014737832
139	0x390cc57c	0.00013425009
140	0xb91a116a	-0.00014693072
141	0x39357326	0.00017304401
142	0x39f603ff	0.00046923754
143	0x39be2773	0.00036269016
144	0x39c200b1	0.0003700308
145	0xb7175324	-9.019659e-06
146	0xb783fb9e	-1.5733585e-05
147	0xb98000cf	-0.00024414665
148	0x392d74d5	0.00016542089
149	0x37e11b42	2.6834783e-05
150	0x34e7d33f	4.3180805e-07
151	0x38045ed2	3.155956e-05
152	0x39565ade	0.00020442481
153	0xb81c1a16	-3.7217593e-05
154	0xb9cb9835	-0.0003883258
155	0x39b47c6b	0.00034424974
156	0xb6c9b3d2	-6.0112006e-06
157	0x38073e60	3.22446e-05
158	0x38996601	7.314608e-05
159	0x3894831e	7.0816124e-05
160	0xba2bce40	-0.0006553866
161	0x380bc4a0	3.3323304e-05
162	0xb9770cf4	-0.00023560581
163	0xb8179019	-3.6135407e-05
164	0xb81d9e94	-3.7579404e-05
165	0x38c18ead	9.2295326e-05
166	0x3a0340cb	0.00050069083
167	0x36a02148	4.772246e-06
168	0xba113f82	-0.00055407744
169	0x38a5ecaa	7.911895e-05
170	0x37f7abf7	2.9524772e-05
171	0x3a666cc7	0.0008790013
172	0xb8a35752	-7.78871e-05
173	0x369c100b	4.65103e-06
174	0xb9e33f7d	-0.00043344116
175	0xba157ec9	-0.00057027914
176	0xb7b867df	-2.1982878e-05
177	0xb529d760	-6.327082e-07
178	0xba0672b7	-0.0005128788
179	0x3722aafa	9.695761e-06
180	0xb9e414e4	-0.00043503114
181	0xb7e3716a	-2.7113321e-05
182	0x368be01e	4.1686135e-06
183	0x398c4516	0.00026754354
184	0x390492c6	0.00012643178
185	0xb7de9041	-2.6531636e-05
186	0xb9df5df7	-0.00042603884
187	0xb966d204	-0.00022012746
188	0x38a9c365	8.094943e-05
189	0x38b54909	8.6443564e-05
190	0xb58b6051	-1.0384339e-06
191	0x3a244809	0.00062668376
192	0x37dc842e	2.6287595e-05
193	0xb59bbf08	-1.1603997e-06
194	0x391d9a4f	0.00015030171
195	0xb934f6c6	-0.00017258068
196	0xb6a3d3a0	-4.882415e-06
197	0xb8af544f	-8.360354e-05
198	0x393e7223	0.00018162331
199	0x38c03335	9.1648115e-05
200	0x34f57e81	4.572685e-07
201	0x35ce3f3b	1.5366599e-06
202	0x38c764fe	9.507871e-05
203	0x346fe280	2.234101e-07
204	0xb48e0c88	-2.645868e-07
205	0xb581bfbd	-9.667052e-07
206	0x3789640a	1.6378257e-05
207	0x38f23dda	0.0001155098
208	0x392b22e5	0.0001632083
209	0xb5cff1ba	-1.5493054e-06
210	0x379924d1	1.8256165e-05
211	0x392d1990	0.00016508088
212	0x388b1c78	6.633339e-05
213	0x363df024	2.8302975e-06
214	0xb342a883	-4.5322405e-08
215	0xb84fcd6d	-4.9543964e-05
216	0xb5b41d9f	-1.3419666e-06
217	0x394b0818	0.00019362604
218	0x359e97b7	1.1816072e-06
219	0xb7097914	-8.194027e-06
220	0x35492b16	7.4941033e-07
221	0x35ecee37	1.76527e-06
222	0x36696cfb	3.478314e-06
223	0xb914fb58	-0.00014208013
224	0x36352c47	2.6996875e-06
225	0x39d4db17	0.00040599026
226	0x35788137	9.257523e-07
227	0xb57f91c0	-9.5206997e-07
228	0x3919365d	0.00014611469
229	0x35389355	6.875974e-07
230	0xb56760bf	-8.619499e-07
231	0x3629210a	2.5202194e-06
232	0x39982c0c	0.00029024517
233	0x399c0c7e	0.00029763946
234	0xb8c67757	-9.4636045e-05
235	0x35c4895a	1.4643113e-06
236	0x36149f24	2.214635e-06
237	0xb8684c54	-5.5384196e-05
238	0x3817fc13	3.6235968e-05
239	0xb8cc958c	-9.755333e-05
240	0x38ed1dfc	0.00011306626
241	0xb8d56871	-0.00010176085
242	0x345edd44	2.0755857e-07
243	0x3888de2a	6.5263666e-05
244	0xb60acb2b	-2.0681862e-06
245	0xb519c52b	-5.728386e-07
246	0x399df060	0.00030124467
247	0x359780d1	1.1287867e-06
248	0xb5b7c9c4	-1.3693284e-06
249	0xb6d30579	-6.288927e-06
250	0xb86dc7ce	-5.6691286e-05
251	0x35991913	1.1406686e-06
252	0x3900fd85	0.00012301475
253	0x34cfc20b	3.869794e-07
254	0x35d1e6cb	1.5638883e-06
255	0xb78ed44a	-1.7026574e-05
