models/lstm/COMP-ATLAS-01_COMP01_OIL_TEMP_lstm.pt (torch, 498546 bytes, 15 tensors)

lstm_layers.0.weight_ih_l0 f4 [512, 1]
0.011068075 0.0065417946 -0.00532652 0.07120149 0.016344078 -0.05821516 -0.0019762411 0.0027982246
0.0054867296 0.07730512 0.031882036 0.0054039285 0.07752688 -0.020711644 -0.022608163 0.01605954
0.001959072 -0.0064282035 0.0019168912 -0.0142963 0.08615256 0.01591313 0.011581075 0.09616177
0.010772919 -0.030253967 0.0017781034 0.022913374 -0.04870702 0.0036465859 0.0018679483 -0.018229512
0.002455879 0.0129078245 -0.0104411235 0.00046323973 -0.040790807 0.016550893 0.00438796 -0.0028890609
0.0214949 0.023306197 0.0023651535 -0.042690158 0.0029325837 -0.045837075 0.0017330061 -0.0030309595
0.00043949668 0.008992731 0.006755073 0.049463823 -5.3972286e-05 0.07074352 -0.000553263 -0.09133954
0.017045481 0.01880649 -0.0015080655 -0.0044805463 0.0014493387 0.03211616 0.0009460495 0.0050793528
-0.011303853 0.0013354863 0.055139758 -0.007757736 0.008649116 0.012760349 -0.07485988 -0.010372477
0.0028912027 -0.036464885 0.0012006861 -0.008277027 -0.05233298 0.010843534 -0.04836715 -0.00409443
0.0032681026 0.059291046 -0.012688005 0.015033588 0.06016906 0.0022582647 0.02184759 0.055774923
0.00031150074 0.0041559865 -0.04450251 0.007376716 3.5830078e-06 6.396113e-05 0.01380194 -0.007899983
-0.0006378246 0.05972427 0.06579139 -0.032460704 0.0032901461 0.0007526012 -0.0036238388 -0.008613796
0.050112996 -0.005374942 -0.04417851 0.004801238 0.049876373 0.043353435 -0.0005777064 0.008026181
-0.03112258 0.001030032 0.0008128663 -0.0012195245 -0.0038291612 0.0037225229 -0.03039574 0.037091453
0.09404527 -0.0020650316 -0.038520377 0.09731092 0.033024568 0.0019532503 0.046518967 -0.0007862602
-0.046939053 0.004801376 0.00014070825 0.014955658 0.021502646 -0.03609369 -0.031438734 -0.0007834403
0.01751154 0.08703968 -0.0013217435 0.008429785 0.0070452695 -0.0043276274 -0.009260525 0.015155548
-0.00063335674 -0.011433311 0.0026045286 0.03590558 -0.004795874 0.042637505 0.010187381 0.091181986
0.0015196683 -0.021922965 0.0006657292 0.008587948 -0.044974476 -0.033272635 0.0028841484 0.08282339
0.0031532901 -0.012511312 0.00043395185 -0.0005443858 -0.005844562 0.002524519 -0.0074294605 -0.0016290679
-0.009843926 0.022005048 0.0014526072 0.02683591 0.09893116 -0.0071362467 -0.0046978965 0.013496907
-0.00024945286 0.04047458 -0.0012910498 0.01482202 0.01132385 -0.03345141 0.026999379 -0.013314783
0.016505856 0.0002307406 0.08162185 -0.005733666 0.0012067556 0.020927368 0.0007577427 0.004066736
-0.024910856 -0.00022453128 0.035315562 -0.033763137 0.023765845 0.06063793 -0.058514874 -0.0020604476
-0.0033222411 -0.012192547 -0.003354799 -0.006696356 -0.024341032 0.0097136125 0.009699456 -0.002308704
-0.0020521893 -0.004298704 0.012434511 0.0021739749 0.046277944 0.0014669016 0.028227957 0.01174873
0.0003262888 0.00517673 -0.043240875 0.00607823 0.00015682488 -8.577327e-05 0.015280961 -0.013016793
-0.0072377403 0.060319684 0.06240783 -0.03765914 0.02259467 0.00081643224 -0.001718634 -0.00057917036
0.009739307 0.054003496 -0.04912659 0.05313298 0.07965621 0.03604572 -0.00054504955 -0.004681286
-0.027517645 -0.00042536465 -0.0002699469 -0.0012928457 -0.0026470248 0.0012402773 -0.027597655 0.022950942
0.057868607 0.003842135 -0.032800168 0.06426479 0.029170398 0.0021485973 0.010519753 -0.00061737385
00000000: df56 353c 8d5c d63b 178a aebb 16d2 913d
00000010: 04e4 853c 0573 6ebd d383 01bb 6b62 373b
00000020: 06ca b33b 2652 9e3d bd96 023d 7013 b13b
00000030: 6ac6 9e3d 77ab a9bc c134 b9bc 4c8f 833c
00000040: c663 003b aea3 d2bb 3240 fb3a 073b 6abc
00000050: c170 b03d 415c 823c 8dbe 3d3c 76f0 c43d
00000060: e680 303c 2bd7 f7bc 400f e93a d4b4 bb3c
00000070: 0381 47bd 8ffb 6e3b f2d5 f43a 0f56 95bc
00000080: d0f2 203b 577b 533c 3f11 2bbc fcde f239
00000090: 4314 27bd bd95 873c e0c8 8f3b 6656 3dbb
000000a0: 1316 b03c a3ec be3c b100 1b3b e0db 2ebd
000000b0: 9730 403b a8bf 3bbd 0926 e33a 10a3 46bb
000000c0: 3f6c e639 3f56 133c a959 dd3b 949a 4a3d
000000d0: 4d60 62b8 fbe1 903d da08 11ba 3a10 bbbd
000000e0: f7a2 8b3c 1110 9a3c 48aa c5ba 8cd1 92bb
000000f0: bdf7 bd3a 3c8c 033d 4f00 783a b370 a63b
00000100: cc33 39bc 7c0b af3a 3ada 613d 9b34 febb
00000110: 06b5 0d3c c810 513c 2350 99bd 52f1 29bc
00000120: 557a 3d3b 345c 15bd 5760 9d3a 5e9c 07bc
00000130: 1b5b 56bd 14a9 313c a21c 46bd 912a 86bb
00000140: aa2d 563b 2bdb 723d 5ae1 4fbc 704f 763c
00000150: d573 763d 65ff 133b b8f9 b23c 3f74 643d
00000160: ec50 a339 f12e 883b 4448 36bd 61b8 f13b
00000170: 9b73 7036 df22 8638 8821 623c ee6e 01bc
00000180: af33 27ba 70a1 743d a3bd 863d 84f5 04bd
00000190: 7e9f 573b 364a 453a ed7d 6dbb e120 0dbc
000001a0: 4943 4d3d 4820 b0bb 86f4 34bd b453 9d3b
000001b0: 2b4b 4c3d 5f93 313d 3871 17ba 3e80 033c
000001c0: c8f4 febc 2402 873a 8916 553a 74d8 9fba
000001d0: aaf2 7abb 92f5 733b 7d00 f9bc 35ed 173d
000001e0: ce9a c03d 7b55 07bb 8bc7 1dbd f34a c73d
000001f0: c544 073d 1a02 003b ac8a 3e3d 071d 4eba
00000200: 2a43 40bd dc54 9d3b 158b 1339 9408 753c
00000210: 5126 b03c fad6 13bd e7c5 00bd ca5f 4dba
00000220: 5c74 8f3c dc41 b23d 5a3e adba 151d 0a3c
00000230: 01dc e63b c5ce 8dbb 75b9 17bc fa4e 783c
00000240: da07 26ba c852 3bbc bdb0 2a3b bb11 133d
00000250: b526 9dbb aaa4 2e3d f9e8 263c 9fbd ba3d
00000260: 9b2f c73a ca97 b3bc 5584 2e3a 77b4 0c3c
00000270: 2837 38bd e348 08bd fb03 3d3b 4f9f a93d
00000280: 6ea7 4e3b 3ffc 4cbc 0884 e339 1db5 0eba
00000290: bd83 bfbb 6772 253b d572 f3bb 7386 d5ba
000002a0: 6b48 21bc ee43 b43c 6965 be3a fbd6 db3c
000002b0: 6c9c ca3d 2dd7 e9bb d0f0 99bb 2222 5d3c
000002c0: ffc8 82b9 acc8 253d 7138 a9ba 0fd8 723c
000002d0: ab87 393c 5804 09bd cd2d dd3c 3f26 5abc
000002e0: 4a37 873c f5f2 7139 5b29 a73d 7ae1 bbbb
000002f0: 002c 9e3a df6f ab3c 40a3 463a 4142 853b
00000300: da11 ccbc 2870 6bb9 0da7 103d 374b 0abd
00000310: 97b0 c23c 7a5f 783d 4bad 6fbd 9308 07bb
00000320: f5b9 59bb 40c3 47bc 30dc 5bbb 1b6d dbbb
00000330: d866 c7bc d825 1f3c 78ea 1e3c a04d 17bb
00000340: 067e 06bb 25dc 8cbb 1fba 4b3c 3f79 0e3b
00000350: f18d 3d3d 0d45 c03a 513e e73c bf7d 403c
00000360: be11 ab39 8fa1 a93b 581d 31bd e42b c73b
00000370: 5c71 2439 2ce1 b3b8 ff5c 7a3c 6344 55bc
00000380: 912a edbb c611 773d 5a9f 7f3d 7840 1abd
00000390: 7518 b93c d705 563a ca43 e1ba 77d3 17ba
000003a0: 9d91 1f3c c532 5d3d f738 49bd f8a1 593d
000003b0: cc22 a33d ada4 133d a8e1 0eba 7965 99bb
000003c0: af6c e1bc 7a03 dfb9 a987 8db9 b474 a9ba
000003d0: b579 2dbb cd90 a23a 7a14 e2bc 9d03 bc3c
000003e0: a207 6d3d 54cc 7b3b 7859 06bd 429d 833d
000003f0: c2f6 ee3c 7bcf 0c3b 0b5b 2c3c 42d7 21ba

lstm_layers.0.weight_hh_l0 f4 [512, 128]
0.0058529302 0.0028314688 -0.000495064 -0.011727403 0.0048291534 -0.0058109476 0.0029271608 -0.0009014655
-0.0013479164 -0.0022049916 -0.006719525 -0.0029477805 -0.0074260044 0.0021036146 -0.0019374725 0.0027789192
0.00022285245 -0.00083542796 -0.0005560449 0.00605939 -0.0015010086 0.0047132187 0.0019440657 -0.0039406433
-0.0051371683 -0.0057669356 -0.00017456531 -0.0017839435 -0.0036814301 -0.0011806177 -0.0018071963 0.004872313
-0.00062861433 -0.0009839756 0.0006248088 -0.00030491393 0.0012770451 -0.0022199915 0.000693409 0.0014643929
-0.0071760914 -0.0032821554 -0.00138183 0.007455916 -0.001570269 -0.005632523 0.002111488 0.0018038328
-0.00058931526 -0.0018088155 0.00054544833 0.0048977626 -0.00049060286 -0.0071076322 0.00071048574 -0.0070685456
0.0024239945 -0.0034883213 -0.0016589722 0.001965787 0.00029369828 -0.0055072373 0.00020548729 -0.00089180656
0.0070234705 -0.00011674048 0.00010205757 0.00469272 -0.007014933 -0.0067258477 0.0044068117 0.0006026918
0.00012741807 -0.0060609085 -0.0010753295 0.0019098141 -0.0019756062 -0.0016724513 0.008041222 -0.00077893113
-0.00019815993 -0.0027857225 0.0022581266 0.002342027 0.003257509 0.00042790623 -0.004474837 -0.0035058842
-0.0007212161 0.0009494941 -0.0036050358 0.0014762658 -6.881344e-05 -3.1198586e-05 -0.0017242812 0.0015464815
-0.0015337256 0.0044340133 -0.0005030998 0.0045642005 0.0003207246 0.00084552355 -0.0008661266 -0.0025793521
0.0009692133 0.0037450376 -0.0054146326 -0.007840473 -0.001351559 -0.008128779 -0.00031545616 0.00026628753
-0.0015148482 0.00054632773 0.00035200085 5.668954e-05 0.0004542343 -0.0005068712 0.0046456857 0.0011150911
-0.0041286736 -0.00042521587 -0.0036332377 0.004400272 0.0017243351 -0.0005528117 -0.005738146 0.0016892282
-0.0023939994 -0.0013374886 -4.2205625e-06 0.0059655467 -0.0026842915 0.0022962822 -0.0013521123 0.0005030792
0.0013038315 0.0019038409 0.0031545174 0.0011506925 0.0037550756 -0.0011022495 0.0005913064 -0.0014077292
4.23717e-05 -4.7323992e-05 0.00049399317 -0.0030623449 0.0019284415 -0.0029138082 -0.00095271686 0.0022721644
0.0020137024 0.0031091082 6.758196e-05 0.0015218745 0.0016847759 0.00071692053 0.001081288 -0.002778372
0.0005594256 0.0008482342 -0.00059586996 0.00023495032 -0.0003904922 0.001388631 -0.00022043969 -0.00065918773
0.003287946 0.0022326356 0.00046605238 -0.0028370807 0.001600998 0.0023951796 -0.00082910253 -0.0016811303
0.00035187905 0.0022186064 -0.00016161353 -0.0030740707 0.0007479937 0.0029301764 -0.001270103 0.0025400142
-0.001152372 0.0020336914 0.0018862505 -0.001498397 -0.00021218085 0.002731031 -0.00014440603 0.0004021649
-0.0012220319 0.0002393506 -0.00070208026 -0.002019255 0.0028424151 0.0036993062 -0.0018482583 -0.0002574768
2.4211336e-05 0.0028757383 0.00062244595 -0.0010497668 0.0005738334 0.00078659895 -0.0031197756 0.00052704394
-7.0203754e-07 0.002778173 -3.478397e-06 -0.0013651765 -0.002943624 -0.00024251566 0.0023287395 0.002453023
0.0005429291 -0.000741357 0.0009094794 -0.0005692772 3.0406749e-05 -2.7873297e-05 0.0012181196 -0.0007282943
0.000715022 -0.002104691 0.00067797175 -0.0017867606 -0.0006146407 -0.0006542413 0.00080651365 0.001961852
-0.0010924917 -0.0026953109 0.0024249493 0.0042822394 0.0015786876 0.004515952 3.1211275e-05 6.740746e-05
0.00057965465 -2.3591625e-05 -1.8877048e-05 0.00027342775 -0.0002641667 0.00017095229 -0.0021070733 -0.0007365477
0.0023613176 -5.0160343e-05 0.0020299884 -0.0035044234 -0.0010351358 0.00036174143 0.0024533835 -0.0009521931
00000000: f0c9 bf3b 2a90 393b 2fc7 01ba 4b24 40bc
00000010: e03d 9e3b c369 bebb 9cd5 3f3b 5350 6cba
00000020: 92ac b0ba 9f81 10bb 762f dcbb 8d2f 41bb
00000030: d755 f3bb ccdc 093b caf2 fdba 871e 363b
00000040: 80ad 6939 9f00 5bba 8bc3 11ba d98d c63b
00000050: 7ebd c4ba 5871 9a3b 05d0 fe3a 8320 81bb
00000060: b155 a8bb 90f8 bcbb 850b 37b9 36d3 e9ba
00000070: 2644 71bb f5be 9aba 72df ecba eca7 9f3b
00000080: 98c9 24ba bef8 80ba 35ca 233a dbdc 9fb9
00000090: 8662 a73a 477d 11bb e4c5 353a dff0 bf3a
000000a0: 6b25 ebbb 6e19 57bb 851e b5ba c250 f43b
000000b0: 7cd1 cdba 0791 b8bb e460 0a3b 966e ec3a
000000c0: 477c 1aba c715 edba 6bfc 0e3a 697d a03b
000000d0: cd9b 00ba 24e7 e8bb e43f 3a3a 429f e7bb
000000e0: e1db 1e3b 529c 64bb df71 d9ba 6fd4 003b
000000f0: 84fb 9939 0e76 b4bb 1378 5739 20c8 69ba
00000100: 2425 e63b 91d2 f4b8 be07 d638 63c5 993b
00000110: 86dd e5bb 8064 dcbb 0467 903b f6fd 1d3a
00000120: 879b 0539 969a c6bb 12f2 8cba ba52 fa3a
00000130: 2c79 01bb 2736 dbba 54bf 033c 2f31 4cba
00000140: 27c9 4fb9 ab90 36bb 14fd 133b b17c 193b
00000150: ef7b 553b 9a58 e039 a7a1 92bb fac2 65bb
00000160: fe0f 3dba 78e7 783a 7742 6cbb 437f c13a
00000170: ef4f 90b8 3adb 02b8 4701 e2ba 4fb3 ca3a
00000180: 4b07 c9ba 334b 913b 75e2 03ba 4a8f 953b
00000190: ed26 a839 20a6 5d3a c60c 63ba 590a 29bb
000001a0: ce12 7e3a 4e6f 753b 3b6d b1bb 5475 00bc
000001b0: cb26 b1ba 922e 05bc cf63 a5b9 829c 8b39
000001c0: df8d c6ba 6f37 0f3a c18c b839 eec5 6d38
000001d0: 4c26 ee39 8ddf 04ba d63a 983b 4028 923a
000001e0: d349 87bb 82ef deb9 9d1b 6ebb 2830 903b
000001f0: 1603 e23a 91ea 10ba 0f07 bcbb 1869 dd3a
00000200: a5e4 1cbb ac4e afba 5b9e 8db6 a27a c33b
00000210: f0ea 2fbb 397d 163b 5c39 b1ba 13e1 033a
00000220: 53e5 aa3a 4d8a f93a 05bc 4e3b d5d2 963a
00000230: b717 763b 5b79 90ba e701 1b3a 8e83 b8ba
00000240: 44b8 3138 c07d 46b8 527f 013a 9fb1 48bb
00000250: c2c3 fc3a 97f5 3ebb bfbf 79ba 98e8 143b
00000260: 52f8 033b 2ec2 4b3b caba 8d38 a279 c73a
00000270: b3d3 dc3a b9ef 3b3a 01ba 8d3a 5915 36bb
00000280: 6ba6 123a 095c 5e3a 2834 1cba ff5c 7639
00000290: faba ccb9 b902 b63a d425 67b9 57cd 2cba
000002a0: 957a 573b 6951 123b 7e58 f439 51ee 39bb
000002b0: 94d8 d13a 72f8 1c3b 2158 59ba 5f59 dcba
000002c0: 687c b839 0a66 113b cd76 29b9 5976 49bb
000002d0: 0215 443a 3408 403b 9679 a6ba 5e76 263b
000002e0: 300b 97ba ae47 053b 103c f73a dc65 c4ba
000002f0: dd7c 5eb9 19fb 323b b36b 17b9 a9d9 d239
00000300: 962c a0ba 30fa 7a39 cf0b 38ba 7a55 04bb
00000310: d047 3a3b 0f70 723b 4241 f2ba f3fd 86b9
00000320: 7319 cb37 e276 3c3b a42b 233a 5498 89ba
00000330: 4f6d 163a c333 4e3a 2675 4cbb 5229 0a3a
00000340: a773 3cb5 0212 363b 686e 69b6 b9ef b2ba
00000350: d1e9 40bb cd4b 7eb9 c49d 183b e6c2 203b
00000360: 5b53 0e3a a057 42ba 216a 6e3a 8c3b 15ba
00000370: ff11 ff37 73d1 e9b7 50a9 9f3a 01eb 3eba
00000380: 5070 3b3a dbee 09bb eab9 313a bd31 eaba
00000390: d71f 21ba 6481 2bba 376c 533a 6a92 003b
000003a0: f031 8fba d0a3 30bb e6eb 1e3b 0752 8c3b
000003b0: f7eb ce3a 8dfa 933b dae8 0238 1b5d 8d38
000003c0: f7f3 173a a1e6 c5b7 275a 9eb7 da5a 8f39
000003d0: db7f 8ab9 a841 3339 d316 0abb e114 41ba
000003e0: 56c0 1a3b 4263 52b8 8e09 053b 78aa 65bb
000003f0: 65ad 87ba 1da8 bd39 f2c8 203b 999c 79ba

lstm_layers.0.bias_ih_l0 f4 [512]
0.0020719378 0.015072383 -0.051587414 0.059374858 0.00965548 -0.019284977 0.063068345 -0.00809125
-0.026918722 -0.020614443 0.10467802 0.014441429 0.14250506 -0.012579548 0.017773332 0.009962782
0.008496014 -0.02492992 -0.004867407 0.026909132 0.046337888 0.04780679 0.012404995 0.03671361
0.03098286 0.0021995828 0.0036433497 0.013923848 0.019043924 -0.049225736 0.0052822037 0.02758481
-0.0045210174 -0.044345938 0.035185438 0.002556668 0.0034394455 -0.029083326 -0.04098892 -0.002943117
0.07853502 0.049299326 -0.00833031 0.06409332 0.02876943 -0.036962155 -0.014042315 -0.031872462
-0.009304816 0.051141545 0.027557153 0.06984827 0.004421668 0.15812805 0.0036262758 -0.035363153
0.007915192 0.06341625 -0.062287558 0.042301033 0.001231544 -0.019557022 0.00037292895 0.005685811
0.04946329 0.012502937 0.03253452 -0.008339185 -0.03142371 0.04103135 -0.004065321 0.0029690352
0.02549902 0.07522548 -0.008519051 -0.029417839 0.011362209 0.0072742323 0.0027390586 -0.00363417
0.019159546 0.048470147 0.030253353 0.024913164 0.034412913 0.004356127 -0.0052880426 0.01917858
0.0014999299 -0.00022049407 0.02560799 0.0022388473 -0.006152928 0.00045864232 0.008375762 0.008750999
0.019736376 -0.025050713 0.0179337 -0.041810904 0.07694583 0.009295234 -0.015192402 -0.012361213
-0.023567257 0.03736791 -0.0196455 0.024107855 -0.0079503795 0.07972499 -0.002543353 0.049685426
-3.4653833e-06 0.0057803183 0.0027289544 0.006290733 -0.011786141 0.010797872 -0.035825077 -0.008504536
0.011087164 -0.01205635 0.0010822278 -0.06449467 0.025777621 0.00042834872 0.061998073 0.05145997
0.0056789094 0.019961134 -0.047775045 0.11917716 0.03027799 0.042556524 0.04463611 0.0057352623
-0.05454363 -0.02168234 0.007005826 -0.014312056 0.03199816 -0.021759167 0.0034426705 -0.001598751
0.003019892 -0.03191077 -0.0033704764 0.010680789 -0.05149231 0.10278243 0.0023532643 0.018998468
0.03097417 0.06644494 0.00094852835 -0.048203144 0.06305426 -0.030787647 0.010366651 0.075038254
-0.0014923752 0.02591508 -0.032661274 0.010491053 -0.03141496 -0.0050846394 -0.0049890783 -0.008581483
-0.034656614 -0.04253649 -0.0045914617 -0.060054746 0.062221173 0.045212697 0.014628146 0.045023665
-0.0051807025 -0.076628685 0.009762104 -0.037109263 -0.020961143 0.14174 -0.05404607 0.07494352
0.0039323703 -0.051174086 -0.057962283 -0.0415348 0.00024824214 0.042116027 -0.00029056857 0.0020783436
-0.030372385 0.0035412991 -0.061800424 0.010247092 0.051407576 0.080804475 -0.01849267 -0.025409767
0.00760807 0.015622769 0.0065779146 -0.030889085 -0.062177245 0.0051691276 0.08383308 -0.015359716
0.0072485893 0.0033479072 -0.040887613 0.00294654 0.020977812 -0.0016269326 0.003610185 0.04694991
0.0054312595 0.0033815524 -0.013806576 0.00070789264 0.0022497734 0.00019760037 0.006694252 -0.042899497
0.012427479 0.008762996 -0.043818343 0.031849127 0.016102202 0.00087551493 0.0028167197 0.062866785
-0.033408634 0.038441256 0.056695607 0.09224632 -0.03340856 0.013764988 -0.0019517008 0.017902592
0.031817216 0.0022669716 0.0002469466 0.0020315559 -0.006774848 0.0046244618 0.037783537 0.048684254
0.070701286 0.012173048 0.003437009 0.09261783 -0.015006078 0.0004723374 0.10729451 -0.014068182
00000000: 59c9 073b 28f2 763c 534d 53bd 0d33 733d
00000010: 0532 1e3c 87fb 9dbc fa29 813d 2a91 04bc
00000020: a784 dcbc 9fdf a8bc 6e61 d63d be9b 6c3c
00000030: d9ec 113e 731a 4ebc 6199 913c f03a 233c
00000040: de32 0b3c d539 ccbc c57e 9fbb 8a70 dc3c
00000050: cccc 3d3d 0dd1 433d 523e 4b3c 0361 163d
00000060: c4cf fd3c e026 103b 44c5 6e3b da20 643c
00000070: 0102 9c3c eda0 49bd 5616 ad3b 8af9 e13c
00000080: 0b25 94bb 16a4 35bd 9b1e 103d c58d 273b
00000090: 5268 613b 2840 eebc ffe3 27bd 4fe1 40bb
000000a0: f8d6 a03d 17ee 493d da7b 08bc 5c43 833d
000000b0: dead eb3c a165 17bd bd11 66bc b38c 02bd
000000c0: 3a73 18bc cc79 513d 8abf e13c 9c0c 8f3d
000000d0: a4e3 903b 52ec 213e d0a6 6d3b f4d8 10bd
000000e0: b9ae 013c 61e0 813d 3d21 7fbd d943 2d3d
000000f0: c26b a13a 0c36 a0bc ad85 c339 0a50 ba3b
00000100: 059a 4a3d 1ed9 4c3c eb42 053d 14a1 08bc
00000110: 26b6 00bd 7d10 283d 6236 85bb 2594 423b
00000120: 52e3 d03c d10f 9a3d 7d93 0bbc aefd f0bc
00000130: 8f28 3a3c af5c ee3b c781 333b 412b 6ebb
00000140: 7bf4 9c3c a288 463d e1d5 f73c b116 cc3c
00000150: 8ef4 0c3d d8bd 8e3b 5147 adbb 661c 9d3c
00000160: 4c99 c43a 6d34 67b9 d9c7 d13c a0b9 123b
00000170: 809e c9bb ee75 f039 7e3a 093c 5a60 0f3c
00000180: 2eae a13c 2737 cdbc b2e9 923c e941 2bbd
00000190: c695 9d3d 0a4b 183c 8de9 78bc af86 4abc
000001a0: 1f10 c1bc 180f 193d 9aef a0bc d67d c53c
000001b0: 4f42 02bc db46 a33d 62ae 26bb f282 4b3d
000001c0: d58e 68b6 d368 bd3b 42d8 323b 7e22 ce3b
000001d0: a91a 41bc 8fe9 303c 51bd 12bd 9c56 0bbc
000001e0: f0a6 353c ff87 45bc 8ad9 8d3a c815 84bd
000001f0: 972b d33c fe93 e039 b1f1 7d3d b1c7 523d
00000200: 2516 ba3b 8885 a33c c4af 43bd 2813 f43d
00000210: 8c09 f83c c04f 2e3d 5bd4 363d deee bb3b
00000220: 2469 5fbd 2a9f b1bc 2191 e53b 1d7d 6abc
00000230: 8110 033d 4840 b2bc 6d9e 613b 2f8d d1ba
00000240: 61e9 453b deb4 02bd 36e3 5cbb 7afe 2e3c
00000250: 9ae9 52bd 987f d23d 3939 1a3b ada2 9b3c
00000260: 8bbd fd3c 4914 883d a9a6 783a a970 45bd
00000270: 9822 813d 6036 fcbc e3d8 293c a8ad 993d
00000280: cd9b c3ba dd4b d43c d4c7 05bd aae2 2b3c
00000290: f9ac 00bd 0c9d a6bb 6c7b a3bb 5999 0cbc
000002a0: 18f4 0dbd be3a 2ebd f973 96bb f7fb 75bd
000002b0: a1db 7e3d f330 393d e4aa 6f3c bc6a 383d
000002c0: e2c2 a9bb 80ef 9cbd 3bf1 1f3c e2ff 17bd
000002d0: b4b6 abbc 4a24 113e 695f 5dbd fd7b 993d
000002e0: 1ddb 803b eb9b 51bd dc69 6dbd 6520 2abd
000002f0: 7f26 8239 db81 2c3d 7457 98b9 d234 083b
00000300: 82cf f8bc 2415 683b 7122 7dbd 6be3 273c
00000310: c090 523d d17c a53d f17d 97bc 2528 d0bc
00000320: 1e4d f93b a4f6 7f3c 8c8b d73b 1b0b fdbc
00000330: 91ad 7ebd c961 a93b aeb0 ab3d 51a7 7bbc
00000340: 9385 ed3b 9068 5b3b c579 27bd bd1a 413b
00000350: a9d9 ab3c cd3e d5ba db98 6c3b 8d4e 403d
00000360: b5f8 b13b 099d 5d3b fa34 62bc df91 393a
00000370: ef70 133b f232 4f39 755b db3b 62b7 2fbd
00000380: a09c 4b3c ab92 0f3c dd7a 33bd 3b74 023d
00000390: c4e8 833c d082 653a b798 383b 4dc0 803d
000003a0: 7ed7 08bd 9474 1d3d a739 683d a3eb bc3d
000003b0: 6ad7 08bd 8b86 613c 36d0 ffba 75a8 923c
000003c0: c552 023d 7991 143b 9d78 8139 da23 053b
000003d0: 8bff ddbb cc88 973b e9c2 1a3d 2469 473d
000003e0: d6cb 903d 7771 473c 713f 613b 6bae bd3d
000003f0: 0edc 75bc 0da4 f739 39bd db3d 3b7e 66bc

lstm_layers.0.bias_hh_l0 f4 [512]
-0.010147163 -0.01942912 -0.036104083 0.11333797 0.001559763 -0.007248723 0.055293344 -0.0056942715
-0.010136498 0.04090583 0.04156753 0.015249056 0.013083365 -0.024652155 -0.052827526 0.0067571346
0.008317546 -0.044345133 -0.0059786127 0.021185966 0.023235526 -0.022709087 0.0031239772 0.09909789
0.038175926 0.01002339 0.0036171281 -0.053169474 -0.020448416 0.033678144 0.012810257 0.09041642
-0.0005651663 0.030567285 0.00041576 -0.0032579086 -0.049440905 0.02335247 -0.051081784 -0.020911781
0.052246876 0.062276237 -0.006001438 -0.017398011 0.018071797 0.014465569 -0.021532167 0.053359374
-0.009256118 -0.0014412347 0.030189818 -0.026655132 0.04298768 0.026519602 -0.01699543 0.012874466
0.005144157 -0.023358421 -0.06666943 0.020767255 0.0012319234 0.024073567 0.0015147062 0.001109959
-0.05752856 0.010812022 -0.05167511 -0.03329808 -0.015584249 0.050119866 -0.048478346 -0.01138926
0.01338185 -0.059760004 0.029160142 -0.032502644 0.03517469 0.0065833265 0.051584467 -0.012837959
0.019165078 -0.0567013 0.0002996998 0.001266792 -0.00081165833 -0.00056995347 -0.010210485 0.07423732
0.002207893 3.555725e-05 -0.044915415 0.0010406739 -0.008088367 0.00046394512 0.009088529 0.006525653
-0.004617853 0.05156165 -0.013703569 0.06207747 0.03241444 0.0052230726 0.0042899004 -0.0123244785
-0.025381276 -0.027769322 0.017648043 0.042820714 -0.062255967 0.09385063 -0.0025183454 0.037845656
0.044370677 0.0058432957 0.0027298662 -0.009209215 0.011051852 0.0081015155 -0.019267544 0.046256773
0.033528015 -0.008974572 0.020198356 -0.026139311 -0.0015515261 0.00017698304 0.12416704 -0.003583508
0.0099645 0.0136121595 -0.02334902 0.12024797 0.00047547196 -0.009470416 0.034958575 0.00441515
0.0075744507 0.0134552615 0.07426343 -0.012099631 0.023808135 -0.014782909 -0.04524041 0.012460225
0.003009064 0.018540002 -0.004560713 0.0945064 0.05454344 0.042741563 0.0029698794 -0.010522595
0.03259292 0.0076583945 0.00094480166 -0.05768003 -0.035699267 0.0067570535 -0.030331336 -0.046549745
-0.0003960804 0.023271747 0.013198968 -0.007157066 -0.07311748 -0.021736383 -0.027835302 -0.014278684
0.018999064 -0.050797604 0.0027667775 0.02137818 -0.03296806 0.031626485 0.010164024 -0.041000172
-0.0071513127 -0.08365383 0.008099182 -0.001765916 -0.0052626724 0.118074924 -0.019990519 0.018455101
0.0037354573 -0.049920134 -0.034862336 -0.02251857 0.00023688783 0.033495113 -0.00029460367 -0.0007909224
-0.029733028 -0.0067087696 0.02708251 0.03975496 0.053227644 0.033574045 0.020539843 -0.0039349203
0.008545845 -0.016468247 -0.026002659 0.005430037 -0.0010558793 0.0012587105 -0.055586804 0.0009873244
0.007245514 -0.07397529 -0.077049606 0.022629514 0.016262805 -0.0036302104 0.036697894 0.022856677
0.00114052 0.0033672778 -0.058893375 -0.0007560184 -0.005867195 0.00019664869 0.0071946247 -0.014750159
0.010498823 -0.0025132215 0.07645017 0.025806228 -0.035836685 0.007201853 0.002883862 -0.022930022
-0.02420501 -0.05729603 0.04593269 0.013757314 0.0049714698 0.109020114 -0.0022774478 0.01449727
-0.0527575 0.0016456316 0.00025008098 -0.0014244044 0.016925072 0.0044422694 0.04720398 -0.02937262
0.053606022 0.009001082 -0.043922495 0.05608481 0.029656153 0.00045992545 0.03667699 0.016773753
00000000: 4940 26bc d129 9fbc e0e1 13bd bd1d e83d
00000010: f670 cc3a b286 edbb 467b 623d 0397 babb
00000020: 8e13 26bc df8c 273d b742 2a3d 2dd7 793c
00000030: 9c5b 563c 51f3 c9bc ad61 58bd f46a dd3b
00000040: 5146 083c 3ea3 35bd 3de8 c3bb 318e ad3c
00000050: 6e58 be3c 6808 babc a4bb 4c3b d6f3 ca3d
00000060: 5c5e 1c3d 2539 243c 570d 6d3b 3cc8 59bd
00000070: 7083 a7bc 18f2 093d 1de2 513c 3e2c b93d
00000080: ab27 14ba 3e68 fa3c 5dfa d939 a382 55bb
00000090: 8c82 4abd ae4d bf3c 223b 51bd 2f4f abbc
000000a0: d200 563d 5e15 7f3d b6a7 c4bb 4686 8ebc
000000b0: 4e0b 943c fe00 6d3c 3a64 b0bc 5c8f 5a3d
000000c0: f9a6 17bc d0e7 bcba a350 f73c dd5b dabc
000000d0: d913 303d a33f d93c 003a 8bbc 6def 523c
000000e0: 5190 a83b 295a bfbc fb89 88bd 1720 aa3c
000000f0: 7d78 a13a ee35 c53c 1b89 c63a 0b7c 913a
00000100: 11a3 6bbd e824 313c 48a9 53bd 9163 08bd
00000110: 1455 7fbc 7d4a 4d3d 3b91 46bd 059a 3abc
00000120: 8c3f 5b3c e8c6 74bd 40e1 ee3c 7e21 05bd
00000130: 5613 103d f2b8 d73b 3c4a 533d 4e56 52bc
00000140: 1500 9d3c 9f3f 68bd 0721 9d39 7c0a a63a
00000150: 78c5 54ba ee68 15ba e149 27bc bc09 983d
00000160: 4cb2 103b 4e23 1538 3af9 37bd 3967 883a
00000170: 1285 04bc a93d f339 0ee8 143c 25d5 d53b
00000180: 5c51 97bb 4f32 533d ef84 60bc f244 7e3d
00000190: 01c5 043d 4f26 ab3b 4b92 8c3b 9cec 49bc
000001a0: 65ec cfbc 7d7c e3bc a192 903c c664 2f3d
000001b0: 1d00 7fbd c234 c03d d30a 25bb 0c04 1b3d
000001c0: 07be 353d 1e79 bf3b 8ee7 323b 3fe2 16bc
000001d0: d412 353c 38bc 043c f8d6 9dbc be77 3d3d
000001e0: ac54 093d 150a 13bc 0677 a53c 1c22 d6bc
000001f0: 945c cbba 8694 3939 4a4b fe3d 4ad9 6abb
00000200: 2442 233c 8905 5f3c 7246 bfbc 9144 f63d
00000210: c448 f939 ce29 1bbc b930 0f3d f6ac 903b
00000220: 1933 f83b 7573 5c3c 6d17 983d 883d 46bc
00000230: 4709 c33c 0434 72bc 024e 39bd f925 4c3c
00000240: b733 453b 34e1 973c 0972 95bb 928c c13d
00000250: f168 5f3d c711 2f3d 4fa2 423b f666 2cbc
00000260: 2780 053d 45f3 fa3b 91ac 773a e541 6cbd
00000270: 6539 12bd 466a dd3b 6c79 f8bc f2aa 3ebd
00000280: 03a9 cfb9 64a4 be3c 7c40 583c d285 eabb
00000290: 9ebe 95bd 8010 b2bc dc06 e4bc 24f1 69bc
000002a0: eda3 9b3c 2611 50bd d352 353b 4b21 af3c
000002b0: 8409 07bd c68a 013d 0287 263c ccef 27bd
000002c0: 8f55 eabb b352 abbd 6eb2 043c 4f76 e7ba
000002d0: 7f72 acbb 44d1 f13d 28c3 a3bc 272f 973c
000002e0: 93ce 743b 0e79 4cbd cfcb 0ebd dd78 b8bc
000002f0: 1865 7839 2c32 093d 0975 9ab9 e755 4fba
00000300: ae92 f3bc 3dd5 dbbb 24dc dd3c 19d6 223d
00000310: 3b05 5a3d f084 093d 2c43 a83c 81f0 80bb
00000320: df03 0c3c 6be8 86bc 8703 d5bc 74ee b13b
00000330: 6e65 8aba 51fb a43a fdae 63bd 1c69 813a
00000340: c76b ed3b 5b80 97bd 2fcc 9dbd 8861 b93c
00000350: 9339 853c d3e8 6dbb 8850 163d ed3d bb3c
00000360: 807d 953a 8cad 5c3b 2e3a 71bd 892f 46ba
00000370: 9941 c0bb 7b33 4e39 e3c0 eb3b a7aa 71bc
00000380: 4103 2c3c dcb4 24bb e891 9c3d 9567 d33c
00000390: 7dc9 12bd 86fd eb3b 2dff 3c3b bed7 bbbc
000003a0: 9649 c6bc 3eaf 6abd eb23 3c3d 5b66 613c
000003b0: b6e7 a23b f045 df3d 3c41 15bb f585 6d3c
000003c0: 4018 58bd 3cb2 d73a 4d1d 8339 15b3 baba
000003d0: 73a6 8a3c 7590 913b f658 413d d99e f0bc
000003e0: fd91 5b3d 4679 133c 13e8 33bd 30b9 653d
000003f0: 76f1 f23c 2622 f139 9d3a 163d 1c69 893c

lstm_layers.1.weight_ih_l0 f4 [256, 128]
-0.006229484 -0.0023538845 0.0005138922 0.009889065 -0.004665395 0.0039320546 -0.003915828 0.00091873907
0.0027661254 0.004228813 0.008458613 0.002519052 0.00838188 -0.0021152082 0.0016489659 -0.0032826194
3.9476603e-05 -0.00027685447 0.0012282731 -0.00563394 0.003909301 -0.006415232 -0.0024040667 0.0040147775
0.004978598 0.005117365 -2.0421963e-05 0.0038751997 0.0032136429 0.0024064127 0.0024927023 -0.005425405
0.0007506042 0.001992162 -0.0017737693 0.00017878156 -0.0021423143 0.0026841091 -0.0005019696 -0.0009534411
0.005366978 0.0048458236 0.00092996383 -0.0060329493 0.002824609 0.0038532 -0.0025758212 -0.0035568308
0.00029958668 0.0053512463 -1.958323e-05 -0.004843445 0.0013605154 0.0059376485 -0.0026111468 0.0047784285
-0.0023507213 0.0048463084 0.0034926604 -0.0020298518 -0.00021108074 0.0040556383 -0.00028480103 0.000789719
-0.0013770263 0.00064222544 -0.00056000357 -0.0038098402 0.0043607634 0.007415448 -0.0049405666 -0.0005139988
0.00020405321 0.005320053 0.0012543496 -0.002444823 0.0015879433 0.0015341743 -0.005451969 0.0014150449
-0.0004232761 0.0082089715 -0.0005688707 -0.003834991 -0.0059723714 -0.00054601417 0.0047395225 0.0056054094
0.000777134 -0.0018441939 0.0010813734 -0.0013238672 9.018397e-05 6.704279e-05 0.0022119859 -0.0017671648
0.0016974928 -0.004109824 0.0010002098 -0.004260067 -0.0012203385 -0.00092680607 0.0010069292 0.0034956061
-0.0014137502 -0.0066152294 0.0057094865 0.01107017 0.0030204323 0.00897571 0.00031192598 0.0005986846
0.0024002753 -9.109436e-05 -0.00012220263 0.00044657453 -0.00069448346 0.0004406202 -0.0059442697 -0.0022304773
0.0051032635 1.1265207e-05 0.0057566417 -0.0079092765 -0.0015520497 0.00069496 0.0055300645 -0.0022378452
0.00048464633 -0.00021715036 -0.00043841064 9.512632e-05 -0.00044725748 -0.00067689363 0.00047364226 -0.000172732
-0.0001397576 -0.00045810148 -0.00044893887 -0.00050483627 -0.0016604549 -0.0002054695 0.0002967057 0.00071160874
-0.00030643298 -0.000618277 -0.00023512456 0.0011648217 -0.0017036449 0.0008314716 0.000118959295 -0.0019303246
-0.00020275758 -0.0016226829 -0.00013824081 -0.0004130463 -0.0007003319 -0.00030734486 0.00041796447 0.0010726793
-0.00015209026 -0.00033304485 0.00091003085 -0.00022462558 0.0010053514 0.00048172096 -0.0001101539 0.0005760903
-0.0001012566 -0.00040897407 -0.0002342489 0.0009829849 -0.0006995244 -0.00022558458 0.00055626035 9.869696e-05
-0.00012603244 0.00017418174 0.00043520617 0.0020248648 -0.00038065642 -0.0038509092 -3.6618734e-05 -5.915382e-05
0.00025889452 0.00051501265 -0.0010428446 -0.0004341901 0.00023662446 0.0021215065 0.00017713488 -0.00035112994
-6.809753e-05 -0.0003603031 0.0002797037 0.001078136 -0.00035899202 -0.0017370138 0.0015445742 0.00029780073
-0.0003455047 -8.2143815e-05 -0.00026660357 0.00037592277 -0.001343581 -0.00043742248 0.0002537268 -0.00038021652
-0.0006528244 0.0024082726 -0.00038127994 0.00024745558 -0.00023001083 0.0002873028 0.0012901999 -0.0007969907
-3.2120548e-05 -0.00030559537 -0.00033618277 0.0005013541 -0.00017335522 1.6235424e-06 -4.786034e-05 0.0006600176
-0.0008043338 -0.00043651822 -0.0009939548 0.0009627877 0.00091784704 -0.0006231499 0.00015576147 -0.0008394361
0.0004195473 -0.0008033962 -0.0015395362 -0.0012424511 -8.49618e-05 -0.0016557889 -3.5762798e-05 -0.0004637307
-0.0012068218 0.0002717128 0.00021268113 0.00015910502 -0.0005207 -0.00046775758 -0.00027437104 0.00039951276
-0.0014495167 0.0001751504 -0.00087294524 0.0015741657 0.00033111768 -7.6834476e-05 -0.0030472886 0.0008840141
00000000: b320 ccbb a143 1abb b9b6 063a bf05 223c
00000010: 2be0 98bb 77d8 803b 5950 80bb 89d7 703a
00000020: e247 353b db91 8a3b ff95 0a3c ae16 253b
00000030: 2754 093c 4e9f 0abb 1d22 d83a 3721 57bb
00000040: ae93 2538 c726 91b9 02fe a03a ea9c b8bb
00000050: 9819 803b de36 d2bb 8c8d 1dbb 658e 833b
00000060: 8223 a33b 92af a73b d54f abb7 10f7 7d3b
00000070: fb9b 523b e8b4 1d3b 9b5c 233b 99c7 b1bb
00000080: 32c4 443a ef8e 023b d27d e8ba 4f77 3b39
00000090: 1266 0cbb e1e7 2f3b 9c96 03ba 59f0 79ba
000000a0: 79dd af3b b7c9 9e3b d1c8 733a 0cb0 c5bb
000000b0: 131d 393b f885 7c3b 1ccf 28bb b819 69bb
000000c0: d811 9d39 8259 af3b ab46 a4b7 c3b5 9ebb
000000d0: 5253 b23a 9b90 c23b c61f 2bbb 5d94 9c3b
000000e0: 8f0e 1abb c8cd 9e3b 1ee5 643b 4307 05bb
000000f0: 8e55 5db9 29e5 843b 5951 95b9 2505 4f3a
00000100: 567d b4ba 055b 283a 34cd 12ba 83ae 79bb
00000110: bce4 8e3b 49fd f23b 7ae4 a1bb e0bd 06ba
00000120: 1ef7 5539 d753 ae3b fd68 a43a 5339 20bb
00000130: 8922 d03a 5916 c93a 6ea6 b2bb 0779 b93a
00000140: 28eb ddb9 ec7e 063c 4420 15ba 7954 7bbb
00000150: e2b3 c3bb 6422 0fba ff4d 9b3b 95ad b73b
00000160: 94b8 4b3a e1b8 f1ba dfbc 8d3a 9d85 adba
00000170: 2621 bd38 5399 8c38 f7f6 103b 36a0 e7ba
00000180: 687e de3a b4ab 86bb 7919 833a 0898 8bbb
00000190: c4f3 9fba e7f4 72ba f0fa 833a 8a16 653b
000001a0: 964d b9ba 91c4 d8bb a516 bb3b a95f 353c
000001b0: 72f2 453b db0e 133c ff89 a339 0bf1 1c3a
000001c0: f04d 1d3b ea09 bfb8 8523 00b9 3822 ea39
000001d0: ff0d 36ba 0b03 e739 26c8 c2bb 332d 12bb
000001e0: 4739 a73b b2ff 3c37 36a2 bc3b e995 01bc
000001f0: 256e cbba fa2d 363a 8b35 b53b d0a8 12bb
00000200: 2118 fe39 dbb2 63b9 7bda e5b9 8e7e c738
00000210: e27d eab9 9071 31ba 3053 f839 651f 35b9
00000220: e58b 12b9 572d f0b9 8e5f ebb9 fd56 04ba
00000230: 9fa3 d9ba 4d73 57b9 2a8f 9b39 418b 3a3a
00000240: bda8 a0b9 de13 22ba c58b 76b9 eeac 983a
00000250: d64c dfba 1df7 593a c979 f938 f202 fdba
00000260: 539b 54b9 34b0 d4ba bcf4 10b9 238e d8b9
00000270: 7a96 37ba 2123 a1b9 3e22 db39 2599 8c3a
00000280: 6b7a 1fb9 869c aeb9 238f 6e3a 7889 6bb9
00000290: ffc5 833a 7e8f fc39 6d02 e7b8 c404 173a
000002a0: b959 d4b8 926b d6b9 b6a0 75b9 80d7 803a
000002b0: 4a60 37ba e68a 6cb9 00d2 113a 87fb ce38
000002c0: 9327 04b9 8ea4 3639 622c e439 98b3 043b
000002d0: d792 c7b9 895f 7cbb 1197 19b8 ee1b 78b8
000002e0: 3cbc 8739 ea01 073a 0fb0 88ba 02a4 e3b9
000002f0: 651e 7839 f908 0b3b 48bd 3939 dd17 b8b9
00000300: 95cf 8eb8 10e7 bcb9 32a5 9239 3e50 8d3a
00000310: 1837 bcb9 83ac e3ba 4f73 ca3a 2322 9c39
00000320: db24 b5b9 a044 acb8 edc6 8bb9 8017 c539
00000330: 191b b0ba da55 e5b9 a206 8539 cc57 c7b9
00000340: 4e22 2bba 1cd4 1d3b 87e6 c7b9 edbc 8139
00000350: 102f 71b9 21a1 9639 ed1b a93a 24ed 50ba
00000360: 2db9 06b8 5138 a0b9 b041 b0b9 4e6d 033a
00000370: b0c6 35b9 7ee8 d935 a6bd 48b8 0805 2d3a
00000380: edd9 52ba 7cdc e4b9 9747 82ba 9763 7c3a
00000390: ac9b 703a e25a 23ba e753 2339 9a0d 5cba
000003a0: aff6 db39 029b 52ba 43ca c9ba bed9 a2ba
000003b0: 852d b2b8 0e07 d9ba 0300 16b8 e220 f3b9
000003c0: 382e 9eba ad74 8e39 2803 5f39 6ed5 2639
000003d0: 967f 08ba 5c3d f5b9 75d9 8fb9 b275 d139
000003e0: b6fd bdba 94a8 3739 5dd6 64ba 3c54 ce3a
000003f0: dd99 ad39 3222 a1b8 05b5 47bb 2fbd 673a

lstm_layers.1.weight_hh_l0 f4 [256, 64]
0.0058853147 -0.0027656301 0.002367319 -0.003134332 -0.002402548 -3.3606684e-05 -0.0054185195 0.0020443047
-0.008643465 -0.009106 0.0040326 0.005435455 0.020704003 -0.0032334514 -0.004695763 0.00065107807
-0.005467251 0.0016512466 0.0074673435 0.001374652 0.0014127388 0.00066512753 -0.005330947 -0.00323939
-0.003833314 0.0032929056 0.0022623362 0.0032963017 -0.003060069 0.0056912107 0.002273015 -0.009301069
0.002366767 -0.0027424966 0.009568378 0.0046316846 0.0009326439 0.0016542537 -0.0034606764 0.004690766
0.0046169814 -0.004535832 -0.0035204543 -0.0017672043 -0.0023740076 0.0029038275 0.007865824 0.006098042
0.0022821266 0.0088319825 -0.00034369773 -0.004102882 0.00026988887 0.00126442 -0.022887044 0.0062831556
0.00032017945 0.005534369 -0.002372226 0.0077476297 -0.005528023 0.0022843245 0.0038302785 0.0037193524
0.0012299042 -0.00019086787 0.002459681 0.00020619536 0.00065371854 -0.0014083182 -0.0010570273 0.00018209989
-0.0016099664 -0.0054876045 0.0014024664 6.8354086e-05 0.012146348 -0.00023631229 -0.0008715087 9.4958734e-05
-0.0013073565 -0.00012099377 0.002817989 0.00073115487 -0.00033657654 -0.0028065818 -0.003023548 0.0009329656
-8.447439e-05 0.0007544986 -0.0007028827 -0.0006769871 0.00089588226 0.0025272877 -0.00028681033 -0.0058966745
-0.0006300542 -0.0008553218 0.006828943 0.0010848836 -0.000881275 -0.001503384 -0.00017674419 0.0006804976
0.0016226377 -0.00179002 0.0002575396 -0.0006830431 0.0002220179 0.0007264994 0.0030323144 0.0020607107
-0.001575092 0.0043222746 0.0032239766 -0.0020539532 3.6265777e-05 -0.0010755548 -0.008968638 0.0018071309
8.554338e-05 -0.00011927467 -0.0018975964 -0.006552571 0.00038453023 0.00011731665 0.0002313113 -0.00022150556
0.0057818806 -0.005478036 0.001676484 -0.0051675113 -0.0028935221 -0.00016078456 -0.004861219 0.0008869581
-4.222658e-06 -0.01623904 -0.000672442 0.0032310751 0.006906668 -0.0022660652 -0.010820277 0.008116615
-0.0029623709 0.00050441653 0.005738497 0.0010563048 0.0024189104 0.0006278528 -0.002557241 0.001635405
-0.0002456352 -0.0008379955 -0.0006056117 0.003811583 0.0014217792 0.008268204 0.0015536137 -0.015342994
-0.00013751423 -0.0029772343 0.0036806748 0.0019795643 0.014553123 -0.0010410754 -0.0021904223 -0.0012693173
-0.005266027 -0.0077090207 -0.0042940844 0.00025001177 0.000359993 0.0050330893 0.003950959 0.0052179806
0.000998267 0.0036408447 -0.0012203039 -0.0051999474 0.00017835393 0.00012330295 -0.004037231 0.0033704394
-0.0033120557 0.0021823645 -0.00045824 -0.016590398 0.00039414325 0.0020506652 0.0010509401 -0.0047064736
-0.0009886282 0.0033770192 0.0042335168 0.002848005 0.0020647654 -0.003239702 -0.0006746463 -0.0008626011
-0.0032744969 -0.0012314019 0.0045317495 -0.0025042784 0.015469059 0.001967612 0.0031804556 0.0022254586
0.00067402615 -0.001398835 0.00041243664 4.891829e-05 -0.0030029865 -0.006287331 -0.0027034502 -0.0005601248
-0.001686838 0.0028230208 0.0012775663 0.0017424643 -0.00060165446 -0.001194034 -0.0021969539 -0.0044269003
0.00012894077 0.0015221984 0.0060411207 5.3551856e-05 -0.005301714 -0.0002530528 0.0018466098 0.0037577455
0.001826957 0.0005620249 0.0029057753 -0.0025186525 -0.0040843505 -0.0013737018 0.0024720659 0.00038236866
-0.004832147 0.0029054666 0.0064333305 0.00044778592 4.9522176e-05 -0.00084124214 -0.015035397 0.00019568772
0.0020557255 -0.002621919 -0.0022929362 -0.004335322 -4.7678623e-06 -0.0012826193 -0.0017955481 0.0032488985
00000000: 99d9 c03b 933f 35bb 0625 1b3b 5d69 4dbb
00000010: 1174 1dbb e7f4 0cb8 d68d b1bb bef9 053b
00000020: 529d 0dbc 5531 15bc e723 843b e71b b23b
00000030: 719b a93c 50e8 53bb eade 99bb 1cad 2a3a
00000040: a026 b3bb a46e d83a 9eb0 f43b ab2d b43a
00000050: a62b b93a f45b 2e3a 3aaf aebb f24b 54bb
00000060: 5638 7bbb cacd 573b b443 143b c406 583b
00000070: 708b 48bb 567d ba3b ddf6 143b 8363 18bc
00000080: c31b 1b3b 75bb 33bb b0c4 1c3c 63c5 973b
00000090: ac7c 743a 8bd3 d83a 84cc 62bb ffb4 993b
000000a0: 0c4a 973b 51a1 94bb 6cb7 66bb 89a1 e7ba
000000b0: 3d95 1bbb 244e 3e3b a8df 003c 15d2 c73b
000000c0: bb8f 153b 05b4 103c 5432 b4b9 7871 86bb
000000d0: df7f 8d39 e5ba a53a 9c7d bbbc eee2 cd3b
000000e0: c2dd a739 a759 b53b 5977 1bbb d4df fd3b
000000f0: 6b24 b5bb 9bb4 153b 6905 7b3b 61c0 733b
00000100: bd34 a13a b423 48b9 9932 213b 2536 5839
00000110: 4f5e 2b3a 5197 b8ba f38b 8aba 11f2 3e39
00000120: 8205 d3ba 5dd1 b3bb f7d2 b73a 5259 8f38
00000130: 7a01 473c 99ca 77b9 f575 64ba 9524 c738
00000140: 9b5b abba 09be fdb8 03ae 383b f9aa 3f3a
00000150: 8a76 b0b9 a1ee 37bb b826 46bb 4392 743a
00000160: d827 b1b8 8bc9 453a a941 38ba d677 31ba
00000170: a4d9 6a3a daa0 253b 085f 96b9 e438 c1bb
00000180: 392a 25ba ad37 60ba 53c5 df3b a732 8e3a
00000190: 5d05 67ba 320d c5ba 6854 39b9 6c63 323a
000001a0: b0ae d43a 1b9f eaba 6106 8739 3f0e 33ba
000001b0: 7acd 6839 8d72 3e3a cbb9 463b fd0c 073b
000001c0: 5173 ceba dea1 8d3b 5a49 533b 9e9b 06bb
000001d0: 151c 1838 a1f9 8cba 32f1 12bc 40dd ec3a
000001e0: c165 b338 1a23 fab8 c5b8 f8ba f3b6 d6bb
000001f0: c69a c939 e607 f638 278c 7239 f243 68b9
00000200: ee75 bd3b 1981 b3bb 78bd db3a 3a54 a9bb
00000210: 3fa1 3dbb 4798 28b9 dc4a 9fbb c082 683a
00000220: 5bb0 8db6 bc07 85bc d246 30ba 72c0 533b
00000230: 5551 e23b 4482 14bb 8847 31bc 8dfb 043c
00000240: 5624 42bb d23a 043a 000a bc3b b573 8a3a
00000250: 9586 1e3b 7d96 243a 6297 27bb 165b d63a
00000260: 99c8 80b9 edac 5bba eac1 1eba c0cb 793b
00000270: fe5a ba3a 5c77 073c a0a2 cb3a 2e61 7bbc
00000280: b231 10b9 b41d 43bb 7a37 713b 94bb 013b
00000290: 3970 6e3c b274 88ba 308d 0fbb 395f a6ba
000002a0: a38e acbb f49b fcbb 64b5 8cbb 0314 8339
000002b0: 71bd bc39 9dec a43b 0c77 813b 98fb aa3b
000002c0: 48d8 823a 3d9b 6e3b 9bf2 9fba 5264 aabb
000002d0: 8504 3b39 e24a 0139 c04a 84bb 97e2 5c3b
000002e0: 130f 59bb 0006 0f3b ef3f f0b9 96e8 87bc
000002f0: 03a5 ce39 7464 063b b3bf 893a c338 9abb
00000300: dc94 81ba fb50 5d3b 50b9 8a3b 98a5 3a3b
00000310: 0451 073b 2e51 54bb bfda 30ba 2e20 62ba
00000320: f198 56bb fe66 a1ba 127f 943b d21e 24bb
00000330: f071 7d3c 0df3 003b 316f 503b 00d9 113b
00000340: 21b1 303a 1d59 b7ba 4f3c d839 9d2d 4d38
00000350: c1cd 44bb f505 cebb 5e2c 31bb 57d5 12ba
00000360: e418 ddba 6e02 393b 0374 a73a 6663 e43a
00000370: 59b8 1dba 2281 9cba c5fa 0fbb 880f 91bb
00000380: 4634 0739 8184 c73a 98f4 c53b de9c 6038
00000390: 00ba adbb 2cac 84b9 f109 f23a 8244 763b
000003a0: 8176 ef3a da54 133a d26e 3e3b fa0f 25bb
000003b0: 04d6 85bb c90d b4ba 6202 223b a778 c839
000003c0: fd56 9ebb a469 3e3b b0ce d23b cfc4 ea39
000003d0: 08b6 4f38 ce86 5cba 0757 76bc 8631 4d39
000003e0: 5ab9 063b 80d4 2bbb 1645 16bb 510f 8ebb
000003f0: a0fb 9fb6 901d a8ba 9958 ebba 79eb 543b

lstm_layers.1.bias_ih_l0 f4 [256]
-0.04684147 -0.03131449 -0.04762799 -0.045137834 -0.0037915832 0.014008603 -0.052093618 -0.060515754
0.045152288 0.12587078 -0.047318306 0.04850993 0.06767849 -0.0024750386 0.004510105 0.0785585
-0.008872196 -0.012628463 0.04406829 -0.037949495 -0.014828523 -0.006934519 0.022233013 0.014998725
-0.01848735 -0.0307601 -0.024207653 -0.024787942 -0.057555776 -0.04179423 0.037618916 0.017464839
0.049721982 0.018515503 0.08500938 0.0019143278 0.034302622 0.038269356 0.036315117 0.07681471
-0.063114114 0.07333973 -0.014502993 0.020304425 -0.027856631 -0.0023913966 0.011631143 -0.015207153
0.016947929 0.083983384 0.054735534 0.05990461 -0.0022587865 -0.08627496 0.112035066 0.014853671
0.020249493 -0.048808783 0.010928715 0.0007762005 0.0073911143 -0.044608895 0.024328982 0.026753273
-0.01624007 0.022627482 -0.058898762 -0.03587423 -0.022206774 0.006755174 0.008965778 0.019934332
0.08335056 -0.07044881 -0.04244117 0.07157974 0.14572094 -0.0065966784 -0.029496765 0.08185501
0.0109221665 0.009136136 -0.0006841663 -0.03016886 -0.059781615 0.021656971 0.02102616 -0.04962804
-0.018463703 0.03565118 -0.081069276 -0.080686815 -0.06255837 0.0125690345 -0.07837516 0.045568008
0.018549405 0.012807758 0.081235215 -0.09096798 0.079564825 -0.0014381924 -0.0145195825 0.0769724
0.05546727 0.04247473 0.016449716 0.029487863 -0.107800856 -0.061096996 -0.020048672 0.0073501733
-0.042261094 0.0441087 -0.014619795 0.0248478 -0.0024471516 -0.019746669 0.019767858 0.010291563
-0.044311162 -0.08586178 -0.058155272 0.07296424 0.07368366 -0.03193941 -3.6032197e-05 0.008616808
0.010259889 0.027580626 0.07762771 0.101336114 0.07126519 -0.039821897 0.0005412355 -0.084287025
-0.0054758796 0.098534465 0.06609971 -0.11070952 -0.08272962 -0.07649617 0.08903311 0.10213717
-0.020994283 0.083735794 -0.023735786 -0.10442756 0.016489988 -0.018603891 0.08465896 0.01158165
0.055132367 -0.021441063 0.055092145 0.06917321 0.019927353 -0.09545445 -0.08148301 0.07891895
0.1001651 0.083134554 -0.06371238 -0.026800517 -0.04412258 -0.088802785 -0.013195954 0.098835476
-0.08654161 -0.062291034 0.026108185 -0.012327944 -0.08634415 -0.09749916 -0.082589515 0.078474514
-0.054875493 -0.06402848 -0.10898262 -0.020501068 -0.031086953 0.034855068 -0.04837773 0.099234074
-0.03088094 -0.023767792 -0.052439377 0.111168064 0.014514484 -0.09655096 -0.03404548 0.037519045
0.035217892 -0.04948474 0.04215188 0.04724515 -0.050110374 0.014990869 0.038397674 0.025756642
0.011545955 -0.0633186 0.053004906 0.059906676 -0.05098517 0.007416816 0.073040776 -0.007573619
0.030287951 0.043714415 0.057342432 -0.0045617027 -0.022330426 0.04243564 -0.054081555 0.05793954
-0.007069783 0.028297001 0.039808538 0.0346231 -0.010155105 -0.03201447 -0.07731775 0.020653406
-0.06737724 -0.025380913 0.050378967 -0.077932075 0.076146305 0.052075 -0.025517434 -0.02093283
-0.00953099 -0.057609703 0.00974841 -0.05618767 -0.10524519 -0.054097947 0.020968959 -0.014680481
0.008480112 0.065923326 0.009941955 -0.045907494 -0.0072079133 0.028389636 0.03308131 -0.015344242
0.023752725 -0.04583902 0.0030648203 0.044089966 -0.03877787 -0.01842949 -0.056298073 0.06466457
00000000: d7dc 3fbd 9f43 00bd 9115 43bd 73e2 38bd
00000010: 367c 78bb 5784 653c 1e60 55bd 5edf 77bd
00000020: 9bf1 383d 45e4 003e d7d0 41bd 59b2 463d
00000030: 059b 8a3d 4234 22bb 81c9 933b 47e3 a03d
00000040: b05c 11bc 9de7 4ebc f480 343d ee70 1bbd
00000050: 55f3 72bc f63a e3bb 0222 b63c 36bd 753c
00000060: c872 97bc 9bfc fbbc 214f c6bc 1510 cbbc
00000070: 9bbf 6bbd 6d30 2bbd 4b16 1a3d 6c12 8f3c
00000080: 47a9 4b3d d3ad 973c 6619 ae3d 2fea fa3a
00000090: e880 0c3d 54c0 1c3d 29bf 143d 0851 9d3d
000000a0: f941 81bd 2433 963d f69d 6dbc 7755 a63c
000000b0: 9733 e4bc fab8 1cbb 8d90 3e3c 6c27 79bc
000000c0: 62d6 8a3c 7bff ab3d 5e32 603d 895e 753d
000000d0: 2608 14bb edb0 b0bd a472 e53d d05c 733c
000000e0: 44e2 a53c b8eb 47bd 5a0e 333c ef79 4b3a
000000f0: 2931 f23b d1b7 36bd 934d c73c ae29 db3c
00000100: e509 85bc 455d b93c d43f 71bd dbf0 12bd
00000110: fbea b5bc 825a dd3b 33e5 123c 534d a33c
00000120: b3b3 aa3d 7747 90bd cbd6 2dbd 6698 923d
00000130: df37 153e f328 d8bb 33a3 f1bc 99a3 a73d
00000140: e3f2 323c bbaf 153c a059 33ba af24 f7bc
00000150: 91dd 74bd f669 b13c 0e3f ac3c c646 4bbd
00000160: 3141 97bc f906 123d a607 a6bd 213f a5bd
00000170: 9a1e 80bd 5aee 4d3c 2883 a0bd 85a5 3a3d
00000180: ecf4 973c a1d7 513c a65e a63d 6c4d babd
00000190: e2f2 a23d bb81 bcba 8be3 6dbc b5a3 9d3d
000001a0: a631 633d fcf9 2d3d 8ec1 863c 8890 f13c
000001b0: b2c6 dcbd d840 7abd 1d3d a4bc b9d9 f03b
000001c0: f819 2dbd 53ab 343d dd87 6fbc 9d8d cb3c
000001d0: 6460 20bb c4c3 a1bc 34f0 a13c f29d 283c
000001e0: 9f7f 35bd 4dd8 afbd 3934 6ebd 476e 953d
000001f0: 75e7 963d e6d2 02bd 4721 17b8 832d 0d3c
00000200: 1819 283c c4f0 e13c 47fb 9e3d 4f89 cf3d
00000210: 7cf3 913d 491c 23bd b3e1 0d3a ad9e acbd
00000220: 026f b3bb 70cc c93d 495f 873d acbb e2bd
00000230: 266e a9bd 06aa 9cbd fe56 b63d 4b2d d13d
00000240: 34fc abbc ac7d ab3d 8d71 c2bc 1ede d5bd
00000250: 0316 873c 3067 98bc ad61 ad3d f6c0 3d3c
00000260: 7ad2 613d 2ba5 afbc 4da8 613d afaa 8d3d
00000270: b03e a33c 9f7d c3bd 90e0 a6bd 42a0 a13d
00000280: 5c23 cd3d 7342 aa3d a37b 82bd c28c dbbc
00000290: e1b9 34bd 3cde b5bd d833 58bc 416a ca3d
000002a0: ba3c b1bd e224 7fbd d5e0 d53c 25fb 49bc
000002b0: 34d5 b0bd a4ad c7bd b124 a9bd 3fb7 a03d
000002c0: 20c5 60bd 5d21 83bd 4832 dfbd dbf1 a7bc
000002d0: 11aa febc 30c4 0e3d ba27 46bd 3c3b cb3d
000002e0: 06fa fcbc acb4 c2bc acca 56bd 15ac e33d
000002f0: 29ce 6d3c 82bc c5bd 4673 0bbd 92ad 193d
00000300: a340 103d 83b0 4abd 73a7 2c3d 2184 413d
00000310: 8940 4dbd 439c 753c e146 1d3d 98ff d23c
00000320: 3f2b 3d3c 2fad 81bd ac1b 593d b460 753d
00000330: d3d5 50bd c308 f33b 6796 953d 1f2c f8bb
00000340: 701e f83c e30d 333d e6df 6a3d 567a 95bb
00000350: 4cee b6bc fed0 2d3d 9f84 5dbd 0352 6d3d
00000360: a3a9 e7bb 1dcf e73c 470e 233d f4d0 0d3d
00000370: 9961 26bc 9b21 03bd c558 9ebd 5531 a93c
00000380: 14fd 89bd a2eb cfbc 2d5a 4e3d da9a 9fbd
00000390: 98f2 9b3d 984c 553d f009 d1bc 547b abbc
000003a0: df27 1cbc 27f8 6bbd ccb7 1f3c 0b25 66bd
000003b0: ca8a d7bd cf95 5dbd 18c7 ab3c 6686 70bc
000003c0: 2bf0 0a3c cf02 873d 95e3 223c 7f09 3cbd
000003d0: 5c30 ecbb 6291 e83c 4580 073d 6a66 7bbc
000003e0: 1395 c23c b2c1 3bbd 27db 483b ae97 343d
000003f0: 8bd5 1ebd 71f9 96bc cf98 66bd dc6e 843d
